src/controller/three_cameras/models/mlp_line_following_100_3c.pth (torch, 955956 bytes, 7 tensors)

cls.0.weight f4 [256, 768]
-0.03251311 0.015131889 -0.0034578587 -0.023807302 0.021569472 -0.04990009 0.033721644 0.028517015
0.05910335 0.021093842 -0.031871922 0.025173796 0.04199303 -0.12938955 -0.015184856 -0.07006304
0.02166578 0.007205287 0.010825101 0.004261739 -0.06474398 -0.012257435 0.014860298 0.019256169
-0.0685982 0.00963708 -0.018929329 0.01194261 -0.014977467 0.020545715 0.0058316686 -0.014004464
0.019112391 -0.0034539672 -0.018389855 -0.029082673 -0.03133336 0.022346469 -0.039788228 0.06694079
0.022090321 -0.040666897 -0.0048324666 -0.0024844997 0.055295244 0.005550203 0.022457708 0.015188775
-0.08107906 0.0040009315 0.032173865 0.02555428 -0.078297906 -0.06964124 0.010928047 -0.01788765
0.016064053 -0.014464198 -0.09971135 0.004424433 0.012695165 -0.008685896 -0.0011988137 -0.014065626
0.0498454 0.053203896 0.031975314 0.012716535 -0.045934595 0.028374806 -0.01637809 0.060237505
0.00769115 0.0043178033 -0.0022569532 -0.009184799 -0.03728465 0.022184275 -0.022727499 0.031910647
0.01588507 -0.035368692 0.08266556 -0.012733744 -0.046496686 -0.0026226568 0.008090539 0.058731556
0.033381093 0.010747826 0.039985474 -0.001709977 -0.020401388 0.030827872 0.017195474 0.0019378883
0.0104521625 0.025200658 -0.02192184 0.07785486 -0.038642716 -0.03536151 -0.03418943 -0.0531178
-0.01948473 0.0139153395 -0.00039821808 -0.0036046156 -0.11252887 -0.03089728 0.021974606 0.021296002
0.014539503 -0.07168455 0.0069671534 0.003246947 -0.06887316 -0.022772709 -0.038600825 -0.045586646
0.022846742 0.008301524 0.035534527 -0.020696415 -0.02958152 0.053302266 0.03894082 -0.050161395
0.03193497 0.04336852 0.023397377 -0.012710144 -0.0017784951 -0.0006582783 -0.0017568314 0.04974625
0.03415971 0.013210486 -0.005421181 -0.05157439 -0.03509489 -0.023128493 -0.023554001 -0.004199478
0.030177757 0.009880761 0.027846744 0.008983245 0.012184434 -0.0061426754 0.013935006 0.04063699
0.018130155 -0.06027684 -0.09562758 0.0744746 -0.062445953 0.010724773 -0.0064740404 -0.03603983
0.037494965 0.02027054 0.0068543856 -0.039175652 -0.0077127083 -0.014534071 0.03564213 0.1177297
-0.006794993 -0.00632635 -0.035883043 -0.022390466 0.016069127 -0.02811812 0.018421706 -0.022688402
0.050575525 0.052208256 0.03312589 -0.042702664 0.02569196 0.028562445 -0.05977777 -0.029227123
0.07719855 0.045694783 -0.029791668 -0.09013335 0.054239646 -0.004166564 -0.010014496 -0.014945238
-0.032909557 0.054758914 -0.01923953 0.018433614 -0.01924626 0.018861491 0.027602527 -0.012916447
-0.02210636 -0.007853784 0.06402016 0.07625595 0.0025214031 0.012450543 0.012090372 -0.009943171
0.025791261 -0.007937717 -0.030885056 0.022820655 -0.006761024 0.047385145 -0.02724644 0.010629872
-0.007857851 0.036692332 -0.03153371 -0.00199979 0.027291788 0.094904795 -0.055822663 0.002574767
-0.021186898 0.018413335 -0.0026355907 0.0062257284 0.045530558 -0.031525932 0.038709924 0.015789023
0.03502393 0.00030099755 -0.005060016 -0.0284271 0.00029140155 0.026175825 0.058563538 -0.020652147
-0.041605487 0.009390649 -0.018252354 -0.008121505 0.068922825 -0.025441298 -0.018792456 -0.0022880046
0.05478674 -0.04217712 0.008987797 -0.049112834 0.014998507 0.0145700835 -0.0060136374 0.03205622
00000000: 782c 05bd beeb 773c 3e9d 62bb 8807 c3bc
00000010: 76b2 b03c 0964 4cbd b51f 0a3d 849c e93c
00000020: 5b16 723d fecc ac3c 228c 02bd 4739 ce3c
00000030: e200 2c3d b27e 04be e7c9 78bc 367d 8fbd
00000040: 6f7c b13c 541a ec3b c45b 313c 0fa6 8b3b
00000050: 7e98 84bd 69d3 48bc 9b78 733c 1dbf 9d3c
00000060: 377d 8cbd d8e4 1d3c ae11 9bbc f0aa 433c
00000070: 0d64 75bc 7d4f a83c 9517 bf3b fb72 65bc
00000080: 9791 9c3c f45b 62bb 52a6 96bc c93e eebc
00000090: 6957 00bd f10f b73c fbf8 22bd 4118 893d
000000a0: c3f6 b43c 5592 26bd ab59 9ebb fdd2 22bb
000000b0: 447d 623d 7ade b53b 3af9 b73c 57da 783c
000000c0: c70c a6bd 3f1a 833b bec8 033d 3657 d13c
000000d0: a75a a0bd 11a0 8ebd 8d0b 333c 1f89 92bc
000000e0: c398 833c 3efb 6cbc 7735 ccbd d6fa 903b
000000f0: 62ff 4f3c 4a4f 0ebc 8321 9dba 8373 66bc
00000100: b12a 4c3d 54ec 593d 8cf8 023d 0359 503c
00000110: ea25 3cbd 4872 e83c 582b 86bc 9abb 763d
00000120: 0b06 fc3b 5c7c 8d3b 64e9 13bb d77b 16bc
00000130: cab7 18bd ccbb b53c 052f babc bdb4 023d
00000140: 6821 823c c3de 10bd 904c a93d 32a1 50bc
00000150: 4f73 3ebd e1e0 2bbb 2e8e 043c 8090 703d
00000160: 9dba 083d a617 303c cfc7 233d 4f21 e0ba
00000170: d020 a7bc bc8a fc3c 86dd 8c3c be00 fe3a
00000180: 8c3f 2b3c 9c71 ce3c 6e95 b3bc 5e72 9f3d
00000190: d347 1ebd 3bd7 10bd 370a 0cbd 0d92 59bd
000001a0: 719e 9fbc 2afd 633c edc7 d0b9 6a3b 6cbb
000001b0: 8975 e6bd 4b1c fdbc 1704 b43c f474 ae3c
000001c0: 1837 6e3c 59cf 92bd b84c e43b bbca 543b
000001d0: 5f0d 8dbd d58d babc e61b 1ebd 10b9 3abd
000001e0: 1729 bb3c 1e03 083c a78c 113d 878b a9bc
000001f0: f254 f2bc 7a53 5a3d 6980 1f3d 0976 4dbd
00000200: 3ece 023d 30a3 313d dbab bf3c 353e 50bc
00000210: 651c e9ba 4f90 2cba 7b45 e6ba b9c2 4b3d
00000220: 0deb 0b3d cb70 583c 2aa4 b1bb ab3f 53bd
00000230: a9bf 0fbd f777 bdbc 52f4 c0bc c69b 89bb
00000240: 5837 f73c eae2 213c db1e e43c 762e 133c
00000250: 38a1 473c 7f48 c9bb a74f 643c f972 263d
00000260: b185 943c d9e4 76bd 65d8 c3bd 2486 983d
00000270: 54c7 7fbd f5b6 2f3c 3024 d4bb 809e 13bd
00000280: 5294 193d 670e a63c c19a e03b a676 20bd
00000290: e3ba fcbb 5020 6ebc 7bfd 113d 451c f13d
000002a0: 88a8 debb 454d cfbb 19fa 12bd 366c b7bc
000002b0: 67a3 833c f957 e6bc 1ee9 963c 07dd b9bc
000002c0: 4828 4f3d 53d8 553d 03af 073d fde8 2ebd
000002d0: f277 d23c cafb e93c 89d9 74bd b86d efbc
000002e0: 461a 9e3d 742a 3b3d a80d f4bc d597 b8bd
000002f0: 642a 5e3d ac87 88bb d713 24bc dfdc 74bc
00000300: 2ccc 06bd e24a 603d 389c 9dbc 1702 973c
00000310: 55aa 9dbc 6a83 9a3c b21e e23c 819f 53bc
00000320: 6618 b5bc 28ad 00bc 001d 833d 142c 9c3d
00000330: 203e 253b 5dfd 4b3c b216 463c afe8 22bc
00000340: 3248 d33c 330d 02bc a802 fdbc 62f2 ba3c
00000350: 948b ddbb ed16 423d ed33 dfbc ea28 2e3c
00000360: 37be 00bc b34a 163d 7e29 01bd e90e 03bb
00000370: 0793 df3c 725d c23d 4ea6 64bd 6cbd 283b
00000380: 2590 adbc 90d7 963c e0b9 2cbb 3201 cc3b
00000390: 407e 3a3d 5621 01bd 4c8e 1e3d fb57 813c
000003a0: 4175 0f3d 35cf 9d39 7ece a5bb f3df e8bc
000003b0: 41c7 9839 af6e d63c 52e0 6f3d b12e a9bc
000003c0: 846a 2abd 3ddb 193c f685 95bc 1010 05bc
000003d0: 6927 8d3d 456a d0bc a3f2 99bc 59f2 15bb
000003e0: 1068 603d eac1 2cbd 8e41 133c 8a2a 49bd
000003f0: 4cbc 753c 5cb7 6e3c 0c0e c5bb 624d 033d

cls.0.bias f4 [256]
0.0194501 -0.041203335 0.0056409976 -0.012413334 -0.005376615 0.025116375 0.016913194 0.0045027076
0.02278862 -0.041298445 0.009404442 -0.009024991 0.0023025337 0.0092201345 -0.029955067 -0.009504317
-0.0023344513 -0.019547692 -0.049843844 -0.031582747 0.0006557949 -0.030569589 0.035362113 0.0381868
0.0038561344 0.0025411758 -0.0045177294 0.05414789 0.006622807 -0.04275213 0.028770301 -0.0051542115
-0.01666688 -0.028201068 -0.019368375 -0.021192053 -0.022748599 0.04572477 -0.02065218 0.036829263
-6.2204854e-05 0.009775707 0.009446058 0.06165537 0.0077949706 -0.028542336 -0.031318575 -0.02802628
-0.033317816 0.006007169 0.0073904376 0.040999543 0.014061628 -0.0030304675 0.016516104 -0.033676445
8.347191e-06 0.009884871 0.015893504 -0.02208754 -0.03332562 0.0065495563 -0.02830206 0.0522954
-0.034322627 0.026648186 0.034567185 0.01966523 -1.4875106e-05 0.0035458617 0.01140206 -0.0016907358
0.021858022 -0.019413214 0.005235872 0.058011852 -0.030978002 -0.018450435 -0.008193015 0.026514033
0.033904035 -0.06687858 -0.016889991 0.028047157 -0.032330077 -0.034880616 0.037756804 0.034251705
-0.013994743 0.0092879245 -0.017530384 0.0026818688 -0.022375846 0.023895346 -0.023384213 -0.013946978
0.026957566 -0.0094970595 -0.010209838 0.04219855 -0.019582659 0.014869647 0.009740287 -0.019519797
-0.03140028 -0.021686813 -0.027340619 -0.029775929 -0.016713608 -0.03241591 0.030138696 -0.043884702
-0.023524005 -0.0042338995 -0.043320004 -0.029373573 0.03199396 0.0024741015 0.032742776 -0.03266943
-0.02127417 -0.038482945 -0.010384297 -0.0129212225 0.019503828 -0.0015705383 0.012179387 -0.039183717
0.004838498 0.015494545 -0.017016925 -0.026498925 0.0058014705 0.025478255 0.017637208 0.030578101
0.010672157 0.03506504 -0.027832804 0.019512136 0.0035961338 0.01112919 -0.019198338 0.028550204
0.02057968 -0.025441404 0.03922905 -0.011216098 -0.026536943 0.023246648 -0.054819815 -0.023345046
0.0059648566 0.038143434 0.01288802 0.010119897 -0.01053517 -0.031883076 -0.012923476 0.0040635015
-0.024560383 -0.033105098 0.0013459781 0.0081707835 0.027135458 0.022478234 -0.01948708 0.0074171247
-0.031174345 -0.03979115 -0.014829901 -0.03637047 -0.045297027 0.0063540707 -0.006390695 0.031347126
-0.005519727 0.0045715817 0.009233182 0.032293264 -0.023400018 0.008546339 -0.0088566905 0.05510827
-0.029263444 -0.025970753 0.005851142 0.022513414 -0.06000383 0.0035749949 0.04067321 -0.028730229
0.00966859 0.0021042475 -0.03440264 0.028206015 0.0034609353 0.021135373 -0.026787575 0.036691826
-0.0249545 0.01981121 0.044061318 -0.0245614 0.022872197 -0.011143613 0.0128681995 -0.026132185
0.013726495 -0.021299956 -0.004205228 -0.002470457 -0.037659667 0.013173484 -0.010943503 0.00022657687
0.0009269338 0.0385813 0.003939424 0.0113827465 0.03586078 -0.007010402 5.3786793e-05 0.019140873
0.007885825 0.015466395 -0.008912941 0.035346072 0.0081823105 -0.035254125 -0.0038841802 0.043606184
0.033427425 0.02354872 0.007637734 0.012681533 -0.025649637 -0.025880763 -0.0031641114 0.021379346
-0.020545129 -0.06543894 0.02564835 0.005496063 -0.0241823 0.056160275 0.011451148 -0.063195646
0.0035720714 -0.009543745 0.02972516 0.015033821 0.007887316 0.030475004 0.030408867 0.021946229
00000000: d155 9f3c d4c4 28bd 1ed8 b83b 4c61 4bbc
00000010: 512e b0bb dbc0 cd3c 8a8d 8a3c 738b 933b
00000020: 33af ba3c 8f28 29bd 1715 1a3c 8edd 13bc
00000030: 1be6 163b 0c10 173c 5464 f5bc ffb7 1bbc
00000040: 98fd 18bb 7b22 a0bc 0f29 4cbd e95c 01bd
00000050: a7e9 2b3a 136d fabc ddd7 103d c369 1c3d
00000060: 33b7 7c3b db89 263b 7609 94bb 2eca 5d3d
00000070: 2204 d93b dc1c 2fbd b2af eb3c a9e4 a8bb
00000080: fb88 88bc ed05 e7bc 6daa 9ebc f59a adbc
00000090: 455b babc e549 3b3d c32e a9bc 48da 163d
000000a0: fa73 82b8 492a 203c a4c3 1a3c 578a 7c3d
000000b0: f46c ff3b 9ed1 e9bc e847 00bd 5f97 e5bc
000000c0: 4378 08bd c9d7 c43b 7c2b f23b 23ef 273d
000000d0: be62 663c cf9a 46bb c84c 873c 50f0 09bd
000000e0: ea0a 0c37 27f4 213c 1833 823c eef0 b4bc
000000f0: 7280 08bd a99d d63b b9d9 e7bc b433 563d
00000100: e295 0cbd 4c4d da3c 5296 0d3d fa18 a13c
00000110: 1890 79b7 b061 683b b5cf 3a3c ae9b ddba
00000120: 980f b33c 7608 9fbc ae91 ab3b d69d 6d3d
00000130: 94c5 fdbc 5e25 97bc ff3b 06bc f533 d93c
00000140: f5de 0a3d a3f7 88bd e15c 8abc 27c3 e53c
00000150: 8b6c 04bd fade 0ebd e1a6 1a3d 844b 0c3d
00000160: 354a 65bc 612c 183c e19b 8fbc 4bc2 2f3b
00000170: 8d4d b7bc 2cc0 c33c 4090 bfbc de81 64bc
00000180: 1dd6 dc3c 8e99 1bbc 2a47 27bc 63d8 2c3d
00000190: d06b a0bc d29f 733c ba95 1f3c fbe7 9fbc
000001a0: 949d 00bd 8ba8 b1bc 6ff9 dfbc a6ec f3bc
000001b0: faea 88bc 8cc6 04bd 6de5 f63c 72c0 33bd
000001c0: 6ab5 c0bc 86bc 8abb 5170 31bd d9a0 f0bc
000001d0: 190c 033d 8924 223b 4a1d 063d 61d0 05bd
000001e0: 2b47 aebc 4ba0 1dbd e622 2abc 89b3 53bc
000001f0: 7ec6 9f3c 85da cdba 0d8c 473c 1b7f 20bd
00000200: 438c 9e3b d5dc 7d3c 1467 8bbc 4614 d9bc
00000210: 431a be3b c6b7 d03c e87b 903c ed7e fa3c
00000220: 45da 2e3c 5ca0 0f3d 9f01 e4bc ead7 9f3c
00000230: 1dad 6b3b 3557 363c d545 9dbc 1ee2 e93c
00000240: b896 a83c 7e6a d0bc a4ae 203d bac3 37bc
00000250: 0164 d9bc c16f be3c be8a 60bd 1c3e bfbc
00000260: d874 c33b 4a3c 1c3d 4628 533c edcd 253c
00000270: b59b 2cbc d497 02bd fdbc 53bc 1f27 853b
00000280: db32 c9bc 3699 07bd 886b b03a c0de 053c
00000290: 2e4b de3c 4624 b83c 5ea3 9fbc 5a0b f33b
000002a0: 5761 ffbc 0bfc 22bd 1df9 72bc 34f9 14bd
000002b0: 6089 39bd cf35 d03b 0969 d1bb d865 003d
000002c0: d3de b4bb 35cd 953b c646 173c f145 043d
000002d0: 65b1 bfbc f205 0c3c a71b 11bc 36b9 613d
000002e0: e4b9 efbc 9ec0 d4bc f0ba bf3b 0d6e b83c
000002f0: 93c6 75bd 764a 6a3b f498 263d a85b ebbc
00000300: 0169 1e3c 6ae7 093b c8e9 0cbd 4d10 e73c
00000310: dcd0 623b 1724 ad3c 9e71 dbbc 2b4a 163d
00000320: 616d ccbc 1e4b a23c a479 343d fd34 c9bc
00000330: 795e bb3c b393 36bc 24d5 523c 2a13 d6bc
00000340: 18e5 603c 3f7d aebc 02cc 89bb 64e7 21bb
00000350: 0641 1abd 99d5 573c 614c 33bc 4495 6d39
00000360: 79fd 723a 6d07 1e3d 4916 813b b37e 3a3c
00000370: c1e2 123d 84b7 e5bb 2199 6138 52cd 9c3c
00000380: 8c33 013c c366 7d3c 9607 12bc 0bc7 103d
00000390: 190f 063c a166 10bd bb8d 7ebb 669c 323d
000003a0: 32eb 083d 3fe9 c03c f545 fa3b 34c6 4f3c
000003b0: 301f d2bc e503 d4bc fb5c 4fbb bd23 af3c
000003c0: 424e a8bc da04 86bd 7d1c d23c 5118 b43b
000003d0: f519 c6bc 5108 663d 999d 3b3c b86c 81bd
000003e0: 6a19 6a3b 5e5d 1cbc 2e82 f33c 6a50 763c
000003f0: cd39 013c b7a6 f93c 041c f93c 94c8 b33c

cls.3.weight f4 [128, 256]
0.06359038 0.022879278 0.043631703 0.05202861 -0.0428459 -0.043110818 0.05754537 0.044165228
0.027899865 -0.012375886 0.010994045 0.0016946768 0.032585606 0.04695468 0.0056834915 0.01105721
-0.0015932767 -0.011732016 0.040203534 -0.028174886 0.025537785 0.02321801 -0.00913652 0.039644923
-0.038576238 0.006539786 0.033077992 0.025367282 -0.003811736 -0.046981297 -0.023756012 0.02605188
0.010209807 0.025221469 0.04815012 -0.05243898 -0.0013893142 0.06012202 0.02096782 0.03135302
-0.034357578 -0.0370899 0.05085982 0.010055117 0.02908723 0.029261863 0.04432733 -0.04144227
0.008474661 -0.0398167 -0.052472025 -0.04929441 0.037680116 -0.010584453 0.05433393 -0.020139646
-0.0038667624 -0.0071616173 -0.005605098 -0.007368463 -0.008207077 0.0133511685 0.047052857 -0.0056859963
0.038937215 -0.014076738 -0.030898249 0.021277351 0.036649883 -0.038137186 0.064000465 0.024322877
0.052653376 -0.01662282 -0.014471917 -0.038121667 -0.0020542408 -0.011518888 0.019702021 0.047503978
0.040161863 -0.041158997 -0.028636426 -0.031407587 -0.037997223 -0.017889071 0.0047023906 0.066366956
0.01065764 -0.002444853 -0.023284366 -0.036493704 -0.0037798518 0.006377099 -0.012514138 -0.013181306
0.040659122 -0.038057644 0.02300379 -0.012766159 0.016017113 0.036642052 -0.0066863955 -0.028461857
-0.045412354 0.026588699 -0.012473147 0.02949535 -0.029361108 0.011389518 -0.020186048 -0.058211073
-0.003725483 0.06663938 -0.061207443 -0.024429817 0.0076983203 -0.0045439946 0.024386622 0.01650186
0.027413791 0.033467017 -0.048993863 -0.011314699 0.019527238 -0.036687765 0.011536322 -0.012745323
-0.02429579 -0.054705746 0.055318873 0.030177604 -0.014612411 0.05507371 0.031673785 0.02367567
0.05968342 0.042140216 0.014584324 0.02821331 0.021049792 0.031492826 -0.03152198 0.015948677
0.022455955 -0.009062744 -0.009314064 0.038723547 0.023811717 0.0024610418 0.029486608 0.049342144
-0.0029922083 0.044490617 -0.019613707 0.013372912 -0.028828187 0.015009512 -0.0030213313 0.023950826
0.039793875 -0.033805944 -0.022524627 -0.0055911425 0.03969067 0.0024148917 -0.02511545 -0.0414314
0.032756243 -0.044455502 -0.009441561 -0.0323317 -0.020510485 0.057577737 0.066452734 -0.06075631
-0.032360982 0.054259133 -0.009947091 0.07087713 0.053161193 -0.021831514 -0.02114171 -0.01840314
0.027368784 -0.019414404 -0.005160422 -0.026508974 -0.026577583 0.07739534 -0.03269586 -0.021933004
0.033541385 0.027084948 -0.004835869 -0.066476 0.039265867 -0.024891116 -0.011282794 0.015102204
0.031057801 0.02232561 -0.032021675 0.025300479 -0.0066537783 -0.0064199353 -0.0275774 0.0628243
0.009756052 -0.038368087 0.05411446 -0.04515566 -0.04943267 0.0139744375 -0.041816797 -0.04700158
-0.0071936715 0.03346678 -0.012995742 -0.036201347 0.016730992 0.0494769 0.01395316 -0.01383053
-0.0578267 -0.021817856 0.018809691 0.026991459 -0.0035490606 0.0038133897 0.008182324 -0.012762607
-0.038794313 -0.029131772 -0.024337167 -0.048376698 -0.016031398 0.022737417 0.010805901 -0.023378542
-0.026370402 0.014940757 0.006508057 -0.03779687 0.00294424 0.050419826 0.0018618315 -0.07009985
-0.023304107 -0.008136918 -0.008188493 0.0075235055 -0.0004329656 -0.044962045 0.010890586 0.056822505
00000000: ac3b 823d 536d bb3c 28b7 323d f41b 553d
00000010: 2f7f 2fbd f894 30bd b2b4 6b3d 99e6 343d
00000020: 428e e43c 3ac4 4abc 5e20 343c eb1f de3a
00000030: 7c78 053d 8d53 403d 953c ba3b 4d29 353c
00000040: 7fd5 d0ba a437 40bc 76ac 243d 05cf e6bc
00000050: 9e34 d13c b233 be3c 58b1 15bc b762 223d
00000060: 1e02 1ebd b34b d63b ca7c 073d 0ccf cf3c
00000070: 51ce 79bb 766f 40bd f89b c2bc c16a d53c
00000080: 0947 273c 419d ce3c 0f39 453d 42ca 56bd
00000090: a619 b6ba 8242 763d b5c4 ab3c 066c 003d
000000a0: 88ba 0cbd 94eb 17bd 6352 503d 38be 243c
000000b0: 5848 ee3c 93b6 ef3c 9390 353d 5fbf 29bd
000000c0: 4ed9 0a3c d616 23bd e8ec 56bd efe8 49bd
000000d0: 7756 1a3d 6a6a 2dbc 418d 5e3d e6fb a4bc
000000e0: 8269 7dbb 00ac eabb f8aa b7bb 2673 f1bb
000000f0: fa76 06bc dcbe 5a3c 7fba 403d 9851 babb
00000100: a17c 1f3d 1ea2 66bc 531e fdbc d74d ae3c
00000110: 301e 163d bd35 1cbd ad12 833d c540 c73c
00000120: 11ab 573d 952c 88bc 9f1b 6dbc 7725 1cbd
00000130: 71a0 06bb b8b9 3cbc 2266 a13c 8893 423d
00000140: c480 243d 5696 28bd f096 eabc 3ea5 00bd
00000150: faa2 1bbd 1a8c 92bc 8316 9a3b 66eb 873d
00000160: 629d 2e3c d439 20bb dbbe bebc 6c7a 15bd
00000170: 64b7 77bb fcf6 d03b 1908 4dbc 68f6 57bc
00000180: 2e8a 263d 55e2 1bbd 7272 bc3c 2729 51bc
00000190: 5236 833c fa15 163d 8d19 dbbb d728 e9bc
000001a0: 4e02 3abd 8bd0 d93c 2c5c 4cbc 3ba0 f13c
000001b0: b586 f0bc 1a9b 3a3c 365d a5bc bc6e 6ebd
000001c0: 3c27 74bb 3a7a 883d a8b4 7abd 0a21 c8bc
000001d0: 3142 fc3b cae5 94bb 74c6 c73c e92e 873c
000001e0: e392 e03c b614 093d caad 48bd 4a61 39bc
000001f0: 96f7 9f3c e945 16bd d702 3d3c c2d1 50bc
00000200: f707 c7bc 2213 60bd 0b96 623d 0637 f73c
00000210: e568 6fbc f894 613d 5fbc 013d 7bf3 c13c
00000220: 9a76 743d 389b 2c3d 17f3 6e3c 991f e73c
00000230: 9d70 ac3c 9ffe 003d 311d 01bd cda6 823c
00000240: 8df5 b73c e77b 14bc 049a 18bc 959c 1e3d
00000250: ca10 c33c 6e49 213b e68d f13c fd1a 4a3d
00000260: ed18 44bb cb3b 363d edac a0bc 0f1a 5b3c
00000270: 1729 ecbc 75ea 753c 8701 46bb 8634 c43c
00000280: e7fe 223d 1a78 0abd 9185 b8bc e735 b7bb
00000290: af92 223d 2943 1e3b ebbe cdbc f9b3 29bd
000002a0: 692b 063d f916 36bd c7b0 1abc 3f6e 04bd
000002b0: 9b05 a8bc a2d6 6b3d 5f18 883d 9cdb 78bd
000002c0: f38c 04bd d33e 5e3d 20f9 22bc 0728 913d
000002d0: 8dbf 593d 01d8 b2bc 6131 adbc 2fc2 96bc
000002e0: 8034 e03c f50a 9fbc c218 a9bb 5929 d9bc
000002f0: 3bb9 d9bc 7381 9e3d 18ec 05bd d8ac b3bc
00000300: b162 093d 41e1 dd3c 3676 9ebb 9224 88bd
00000310: 3fd5 203d 74e8 cbbc 78db 38bc 3c6f 773c
00000320: ee6c fe3c 33e4 b63c 2929 03bd f342 cf3c
00000330: f007 dabb 525e d2bb 00ea e1bc 07aa 803d
00000340: d9d7 1f3c db27 1dbd 20a7 5d3d 24f5 38bd
00000350: e979 4abd 0af5 643c 1748 2bbd bb84 40bd
00000360: e4b8 ebbb 7614 093d 18ec 54bc dd47 14bd
00000370: 6f0f 893c 4aa8 4a3d cb9b 643c 7399 62bc
00000380: b1db 6cbd 5cbb b2bc c816 9a3c 311d dd3c
00000390: 5b97 68bb 10ea 793b 270f 063c 411a 51bc
000003a0: c9e6 1ebd c1a5 eebc bd5e c7bc a526 46bd
000003b0: 4754 83bc d243 ba3c 3c0b 313c 5b84 bfbc
000003c0: be06 d8bc 14ca 743c 8a41 d53b e4d0 1abd
000003d0: 27f4 403b 0585 4e3d b308 f43a 8390 8fbd
000003e0: 41e8 bebc b550 05bc 0729 06bc bd87 f63b
000003f0: a9ff e2b9 1f2a 38bd 6e6e 323c b7be 683d

cls.3.bias f4 [128]
-0.00366418 -0.034913424 0.05714275 -0.004267152 0.030106073 0.0011779993 -0.027121324 0.006107207
-0.032035228 0.012232925 0.028310303 0.04356015 -0.048863243 0.060218774 -0.01855523 -0.029332213
-0.013817277 0.0030996394 0.046827145 -0.03515905 0.02868728 -0.0078783585 0.00927571 -0.050685126
0.006135822 0.010003401 0.011183891 -0.007802366 -0.009999856 -0.053269375 -0.054451127 0.034775846
-0.011710862 -0.040569376 0.013999998 0.03697064 -0.021451723 0.004538103 -0.037888512 0.010212842
-0.034349944 -0.05708258 -0.044576574 -0.022450594 -0.045424286 0.0012105947 -0.016495978 0.057680015
-0.031875134 0.022547388 -0.018757764 -0.023232577 0.0077888635 -0.012438789 -0.01534392 -0.05275382
-0.014429316 0.00960872 0.023378937 0.045474842 -0.0060737105 -0.00061636925 -0.041410975 0.052794974
-0.049655464 -0.056957934 0.031114591 -0.00738744 -0.0132968845 0.048894774 -0.044018276 -0.02081855
0.0076628854 -0.045220636 -0.0013852938 -0.0030650916 -0.056376215 -0.035963677 -0.044937328 -0.020551987
0.024085127 -0.0025807926 0.056177743 0.016563363 -0.013595163 0.020735616 0.01021583 -0.017060084
0.0035156945 0.040951516 -0.020514727 0.00016263654 -0.0019243952 -0.028182792 -0.0014290346 0.011231823
0.029597942 0.0024142184 -0.03156343 -0.02242322 0.043050785 0.0046182065 0.023333669 -0.04355342
0.044371665 0.045457102 0.010348083 0.038544733 -0.058931377 -0.041737262 0.0315016 -0.03314674
0.040911272 -0.037948236 0.048870932 0.03397176 -0.027097192 -0.015122176 -0.049429733 0.011851432
-0.03047103 0.017614212 -0.0374204 0.0056774938 0.03892218 -0.035643212 -0.009367107 -0.027424838
00000000: bd22 70bb 6101 0fbd 840e 6a3d 77d3 8bbb
00000010: 03a1 f63c 1967 9a3a 8a2d debc f71e c83b
00000020: 5f37 03bd 9b6c 483c 02eb e73c 216c 323d
00000030: d324 48bd f6a7 763d 2301 98bc 1c4a f0bc
00000040: dc61 62bc 5223 4b3b d2cd 3f3d f002 10bd
00000050: 9601 eb3c 3b14 01bc 26f9 173c 359b 4fbd
00000060: 010f c93b 4ee5 233c a43c 373c fdaa ffbb
00000070: 70d6 23bc fd30 5abd 2508 5fbd 1e71 0e3d
00000080: eade 3fbc 132c 26bd 3f60 653c 876e 173d
00000090: 86bb afbc 5eb4 943b fc30 1bbd c453 273c
000000a0: 87b2 0cbd 6ccf 69bd ed95 36bd 4fea b7bc
000000b0: d10e 3abd d1ac 9e3a 9322 87bc e141 6c3d
000000c0: 808f 02bd 4db5 b83c e2a9 99bc 3f52 bebc
000000d0: b939 ff3b 10cc 4bbc 1165 7bbc 6414 58bd
000000e0: f068 6cbc e56d 1d3c 2f85 bf3c d443 3a3d
000000f0: fa05 c7bb d793 21ba 8e9e 29bd 8b3f 583d
00000100: 8763 4bbd b94c 69bd 07e4 fe3c 5712 f2bb
00000110: 2ddb 59bc e345 483d 824c 34bd aa8b aabc
00000120: f118 fb3b 4639 39bd bf92 b5ba b4df 48bb
00000130: bfea 66bd a64e 13bd 3410 38bd a45c a8bc
00000140: 2c4e c53c 8422 29bb a21a 663d e4af 873c
00000150: 3fbe 5ebc bddd a93c 4c60 273c 97c1 8bbc
00000160: 9167 663b c7bc 273d 800e a8bc 6a89 2a39
00000170: fd3b fcba 99df e6bc 724e bbba ae05 383c
00000180: 6277 f23c dd37 1e3b a848 01bd e7b0 b7bc
00000190: 0556 303d 5354 973b 4026 bf3c 1265 32bd
000001a0: 10bf 353d 3a31 3a3d 028b 293c 15e1 1d3d
000001b0: 0762 71bd b1f4 2abd d207 013d e0c4 07bd
000001c0: 9492 273d 9c6f 1bbd e32c 483d f925 0b3d
000001d0: eefa ddbc 01c3 77bc d576 4abd 822c 423c
000001e0: 629e f9bc ae4b 903c 2246 19bd 450a ba3b
000001f0: dd6c 1f3d 9efe 11bd 7f78 19bc 0eaa e0bc

cls.6.weight f4 [64, 128]
0.04697297 -0.05736603 -0.011387103 -0.04892337 -0.045013316 0.039365083 -0.03410365 -0.0485501
-0.048033908 -0.04157024 0.03567279 0.04660144 0.012710293 -0.05435495 0.037722092 0.011515144
0.044590686 -0.048550244 -0.025046153 -0.076218575 -0.048384797 0.047477815 0.016424965 -0.04122485
0.019003248 0.019397594 0.0626129 -0.040304363 -0.0009798189 0.05834193 -0.07644841 -0.04493129
-0.010685525 0.03291741 0.039601024 0.057227697 -0.02494111 0.003581548 -0.008514917 -0.0015039478
0.058089744 0.06325474 -0.046069484 0.01927908 0.05795713 0.027046265 0.05613547 -0.0019188946
-0.034756497 -0.055531204 0.054279335 -0.016270645 -0.04380296 -0.033047006 0.00042922221 -0.0033006892
-0.02104814 0.06087438 -0.004000177 -0.06627257 0.06348712 -0.05392631 -0.0025623785 -0.0009838283
0.077428736 0.0024671038 0.07814141 0.027527653 0.051769923 -0.05589206 -0.014259265 -0.055730212
-0.009534324 0.040300842 -0.023466349 -0.013116498 0.024089783 0.0059452076 0.0033373388 -0.059943367
0.031469766 -0.05118793 -0.019033642 -0.013435292 0.013319322 0.045296323 -0.05446875 -0.00035454528
0.00033395097 0.015414764 0.05494027 -0.05120036 0.065741815 -0.013498397 -0.059294477 -0.0052766916
0.05038385 0.046370167 -0.07009454 0.012611661 -0.0041667847 0.029896235 -0.047290668 -0.006014883
0.05072049 0.033529043 0.04615328 0.037594356 0.042640917 -0.05341262 0.05236161 0.0036595482
0.017870283 -0.0061815497 0.034215942 -0.008223927 -0.045242462 0.052057143 0.05066137 -0.052693877
-0.059814006 -0.0141262 0.05944948 -0.053183585 0.04980856 0.035198353 0.039259344 0.03153872
0.01866549 0.06883611 -0.050983056 -0.058204297 -0.070570365 -0.004125353 -0.04453762 -0.055246886
0.050867107 0.051199 -0.06399913 0.06847157 -0.03723768 -0.079393044 -0.0408279 0.015716327
0.027202649 0.008730849 -0.00076397933 -0.023240227 -0.06710596 0.016885974 0.02619394 0.02784474
-0.0026468977 0.011712584 -0.008764898 -0.074366145 -0.071807615 0.031624697 0.06857885 0.07758446
0.00030892924 -0.055544786 -0.02128928 -0.033714388 0.03470791 0.06789002 -0.0545627 -0.044004325
-0.015372979 0.055907607 0.030509856 0.030724516 -0.011072346 0.06497708 -0.051482983 -0.0018268522
-0.068162784 -0.001084096 0.040808015 0.005699989 0.021507783 -0.06316132 0.008969405 -0.0048471377
0.045024477 0.07164449 -0.04264149 0.046594083 -0.015558009 0.011598385 0.046849262 -0.05302816
0.047631837 0.06375337 0.014544368 -0.050192345 -0.062063966 -0.037563827 0.022832658 0.04836924
0.031439878 0.08055698 -0.065994546 -0.033504702 -0.0071626804 -0.009638855 0.05554177 0.03918507
0.004688267 -0.022974037 -0.08233802 -0.06666592 -0.04523091 0.022777557 0.046142578 0.020762525
-0.023023782 0.048193388 0.048048727 0.06228274 -0.007319608 0.07121088 0.044824265 0.03590749
-0.025120366 0.02623519 0.02143183 0.03422791 0.054086063 -0.012943222 0.039569966 -0.031204967
0.0025995492 0.03630177 0.031438746 -0.000120575445 0.052799374 0.01127978 0.06536024 -0.032659598
-0.019801019 -0.07526049 -0.007935221 -0.011198908 -0.016951185 -0.03665061 0.03135973 -0.006362611
-0.038585823 -0.022171823 -0.06930835 -0.05633334 0.008712393 0.052233912 -0.017090468 -0.05878511
00000000: bb66 403d a4f8 6abd f990 3abc df63 48bd
00000010: e25f 38bd 483d 213d 45b0 0bbd 78dc 46bd
00000020: 34bf 44bd 8e45 2abd a21d 123d 27e1 3e3d
00000030: d53e 503c 4ca3 5ebd 7b82 1a3d 04aa 3c3c
00000040: b9a4 363d 9fdc 46bd 972d cdbc 7c18 9cbd
00000050: 232f 46bd 1978 423d a68d 863c 63db 28bd
00000060: b3ac 9b3c b4e7 9e3c 313b 803d 3016 25bd
00000070: 446d 80ba f3f7 6e3d fc90 9cbd df09 38bd
00000080: 5712 2fbc 68d4 063d af34 223d 9767 6a3d
00000090: 4c51 ccbc 68b8 6a3b 2782 0bbc 1d20 c5ba
000000a0: 83ef 6d3d b38b 813d 5bb3 3cbd 29ef 9d3c
000000b0: 7564 6d3d 2190 dd3c 4eee 653d 6b83 fbba
000000c0: d45c 0ebd b074 63bd 0254 5e3d 044a 85bc
000000d0: bc6a 33bd 4c5c 07bd 3b09 e139 6050 58bb
000000e0: 266d acbc 6a57 793d eb13 83bb eab9 87bd
000000f0: 8905 823d d6e1 5cbd 94ed 27bb cdf3 80ba
00000100: f592 9e3d 22af 213b 9b08 a03d ac81 e13c
00000110: b30c 543d 13ef 64bd b19f 69bc 5d45 64bd
00000120: da35 1cbc 7f12 253d 803c c0bc 94e6 56bc
00000130: f057 c53c 04d0 c23b 41b7 5a3b 2d87 75bd
00000140: 71e6 003d 6faa 51bd 71ec 9bbc b31f 5cbc
00000150: 4939 5a3c a388 393d a01a 5fbd 43e2 b9b9
00000160: 2416 af39 358e 7c3c 0c09 613d 78b7 51bd
00000170: a5a3 863d 6128 5dbc c4de 72bd 19e8 acbb
00000180: 4c5f 4e3d a5ee 3d3d ba8d 8fbd 24a1 4e3c
00000190: 8689 88bb f3e8 f43c dcb3 41bd 7f18 c5bb
000001a0: 4ac0 4f3d c055 093d 390b 3d3d 8afc 193d
000001b0: 3ea8 2e3d 31c7 5abd 2179 563d 08d5 6f3b
000001c0: b364 923c 998e cabb 0426 0c3d a6bd 06bc
000001d0: 2950 39bd df39 553d 4c82 4f3d 89d5 57bd
000001e0: 88ff 74bd 9471 67bc 4c81 733d 08d7 59bd
000001f0: 1004 4c3d 262c 103d 68ce 203d bf2e 013d
00000200: 5fe8 983c f2f9 8c3d 9cd3 50bd a167 6ebd
00000210: 3287 90bd f82d 87bb 146d 36bd 8f4a 62bd
00000220: 075a 503d 0bb6 513d fa11 83bd d33a 8c3d
00000230: 8a86 18bd d298 a2bd 283b 27bd 87bf 803c
00000240: 17d8 de3c d60b 0f3c c945 48ba 4a62 bebc
00000250: d96e 89bd 7454 8a3c ac94 d63c a71a e43c
00000260: 9377 2dbb 23e6 3f3c a69a 0fbc 474d 98bd
00000270: df0f 93bd e688 013d 1173 8c3d 9ae4 9e3d
00000280: c8f7 a139 ee82 63bd db66 aebc 1918 0abd
00000290: e229 0e3d ec09 8b3d 237d 5fbd e13d 34bd
000002a0: f3de 7bbc 60ff 643d ceef f93c fbb1 fb3c
000002b0: c968 35bc b412 853d d2df 52bd fd72 efba
000002c0: ee98 8bbd 3a18 8eba 4e26 273d f9c6 ba3b
000002d0: 1731 b03c b95a 81bd 69f4 123c bdd4 9ebb
000002e0: 966b 383d 59ba 923d d8a8 2ebd 70d9 3e3d
000002f0: 05e7 7ebc 2707 3e3c 03e5 3f3d 0e34 59bd
00000300: 9a19 433d 2091 823d 804b 6e3c 7d96 4dbd
00000310: c936 7ebd 87dc 19bd 8e0b bb3c d31e 463d
00000320: 1ac7 003d 0ffb a43d 2628 87bd 3a3c 09bd
00000330: ebb4 eabb 4aec 1dbc c47f 633d 8680 203d
00000340: 09a0 993b 0c34 bcbc d6a0 a8bd 2488 88bd
00000350: 0c44 39bd 0098 ba3c 0000 3d3d 2c16 aa3c
00000360: 5f9c bcbc 6e66 453d bece 443d 301c 7f3d
00000370: 52d9 efbb 03d7 913d a699 373d bb13 133d
00000380: 3ac9 cdbc 2eeb d63c ce91 af3c 9132 0c3d
00000390: 5989 5d3d cf0f 54bc 1e14 223d 8fa1 ffbc
000003a0: 335d 2a3b 2ab1 143d eac5 003d 73dd fcb8
000003b0: 2844 583d d4ce 383c 97db 853d 12c6 05bd
000003c0: bf35 a2bc 2c22 9abd bb02 02bc a07b 37bc
000003d0: 36dd 8abc f31e 16bd 0f73 003d 737d d0bb
000003e0: 2b0c 1ebd afa1 b5bc 89f1 8dbd cabd 66bd
000003f0: 6dbe 0e3c 3af3 553d 4f01 8cbc a8c8 70bd

cls.6.bias f4 [64]
0.04022979 0.04803602 -0.019622242 -0.039175883 -0.045498375 -0.04270061 0.049307626 -0.04087138
0.027238064 0.0070346347 -0.025894506 0.020360151 -0.080249466 0.014997255 0.014748882 0.056590192
-0.033255197 -0.049602196 0.043822747 -0.06109152 0.019998265 0.08006578 -0.021665035 0.04209404
-0.01780039 0.01427294 0.047010824 -0.037842333 -0.026470931 0.03491631 0.015329598 -0.03454891
0.03732192 0.0050447355 -0.052797675 0.05935579 -0.044281334 -0.08322709 0.070257306 -0.032937232
-0.055758953 0.0019052842 0.044480663 -0.01501903 0.035531256 -0.06401128 -0.016804487 0.019586978
0.030974269 0.004570454 0.044698305 0.007169859 0.018686846 0.0015172188 0.008596008 -0.043205313
-0.03784702 0.021805381 -0.023360955 -0.036018636 -0.056693994 -0.059341773 0.052561495 0.037201036
00000000: fec7 243d 6bc1 443d d3be a0bc e476 20bd
00000010: 815c 3abd d6e6 2ebd cbf6 493d c068 27bd
00000020: 5c22 df3c cb82 e63b b720 d4bc 55ca a63c
00000030: d559 a4bd 0cb7 753c 4ba5 713c 1ecb 673d
00000040: 9a36 08bd ac2b 4bbd 7b7f 333d 1a3b 7abd
00000050: 67d3 a33c 87f9 a33d df7a b1bc cd6a 2c3d
00000060: 20d2 91bc 0dd9 693c 6c8e 403d 9000 1bbd
00000070: 91d9 d8bc 6804 0f3d ff28 7b3c 2883 0dbd
00000080: dfde 183d 4f4e a53b 6042 58bd 0f1f 733d
00000090: 5860 35bd f772 aabd 10e3 8f3d 31e9 06bd
000000a0: 8063 64bd bbba f93a 5b31 363d 6112 76bc
000000b0: 3989 113d 5918 83bd 90a9 89bc df74 a03c
000000c0: c0bd fd3c bfc3 953b 9215 373d 23f1 ea3b
000000d0: 2815 993c 6add c63a 45d6 0c3c 0ef8 30bd
000000e0: 7a05 1bbd 33a1 b23c 795f bfbc 4788 13bd
000000f0: f637 68bd 5c10 73bd b94a 573d 1d60 183d

cls.9.weight f4 [1, 64]
0.0033656997 0.0062646423 -0.004210754 0.0046926923 0.0056867967 0.0046013193 -0.0034059817 -0.0035935857
0.0027607707 0.001352981 0.002161736 0.0049434965 -0.007374118 0.004948678 -0.003995785 -0.0036076484
-0.002289398 0.005502973 -0.0033522092 -0.0018981952 0.006211922 0.005040827 0.0038515138 -0.0053463047
-0.0051139793 -0.004772399 -0.005571338 0.0058749146 0.00235409 -0.0047224173 -0.00371066 -0.0053198813
0.008059751 -0.0026479599 -0.0028764105 -0.006653424 -0.006503734 -0.003073232 -0.005521973 -0.005427542
0.006107747 -0.0058929333 0.0021030004 -0.0045623453 0.0029967506 -0.005220945 0.0032236793 -0.0028921808
0.008806352 -0.005710591 -0.0042325286 0.0014464146 0.0030423526 0.0053162226 -0.0011020027 0.0031200193
0.003353351 0.0041978657 0.005142678 -0.004349366 -0.0043827286 0.003003249 0.004218107 0.0030959544
00000000: 1293 5c3b a147 cd3b 5dfa 89bb 28c5 993b
00000010: 4f58 ba3b aac6 963b e436 5fbb 5d82 6bbb
00000020: 0cee 343b 8256 b13a e9ab 0d3b 0efd a13b
00000030: 96a2 f1bb 8528 a23b 13ef 82bb 4c6e 6cbb
00000040: ba09 16bb 4952 b43b bdb0 5bbb ddcc f8ba
00000050: 618d cb3b 862d a53b ae69 7c3b 0e30 afbb
00000060: 2b93 a7bb c961 9cbb c58f b6bb 5b82 c03b
00000070: 1447 1a3b 82be 9abb 8b2e 73bb 6652 aebb
00000080: 0c0d 043c 6589 2dbb 2982 3cbb f704 dabb
00000090: 461d d5bb 4768 49bb abf1 b4bb 86d9 b1bb
000000a0: 7f23 c83b 8219 c1bb 7ed2 093b ba7f 95bb
000000b0: 2265 443b 7614 abbb 5d44 533b be8a 3dbb
000000c0: 8448 103c e91f bbbb 06b1 8abb 9f95 bd3a
000000d0: 3562 473b b533 ae3b 1371 90ba 3d79 4c3b
000000e0: e5c3 5b3b 408e 893b e983 a83b 2085 8ebb
000000f0: fe9c 8fbb 28d2 443b 0c38 8a3b 7fe5 4a3b
