src/controllers/three_cameras/models/mlp_right_100_3c.pth (torch, 955784 bytes, 7 tensors)

cls.0.weight f4 [256, 768]
000000 04 ab bb bc cd 32 ad bb fb 24 c7 3b 6a e7 28 bd
       -0.022908695 -0.005285597 0.0060774065 -0.04123632
000010 04 1f b7 3c c3 f2 00 bd 24 13 7f bc 9b 54 7d bc
       0.022353657 -0.031481516 -0.015568528 -0.015462066
000020 61 a7 e6 3c 40 06 4d 3d 72 1b 83 bc c7 59 8f 3c
       0.028155984 0.05005479 -0.016004298 0.017498864
000030 fe 15 0f 3d d9 28 b2 3c 68 27 2d bc 2f 32 ba 3c
       0.034933083 0.021747993 -0.010568477 0.022729008
000040 95 ba 6b 3c b5 b3 d0 3b c1 ee 08 3d 67 f1 70 bc
       0.014387746 0.006369079 0.03343082 -0.014705992
000050 de c4 2d bd 27 6f 8c 3c e1 46 ac bc 58 70 cf 3c
       -0.042424075 0.017142845 -0.021029891 0.025322124
000060 02 68 49 3c 6e e5 01 3c 53 11 0e bc b6 d0 b8 3c
       0.012292864 0.007928235 -0.008671123 0.022560459
000070 3a e0 ea 3b 32 99 24 3d 0d cd 75 3c 3b d3 d1 bc
       0.007167843 0.04018516 0.015002501 -0.025613418
000080 9f 3d 5e 3b f6 1d e2 3c 6b 3a bd 3c b7 61 6a 3b
       0.003391124 0.027602177 0.023099145 0.003576381
000090 f4 51 8e bc 75 d6 ce 3b c6 07 00 3d 39 a8 17 3c
       -0.017373063 0.0063121864 0.031257413 0.009256416
0000a0 4e a0 8f 3c d7 f0 ed bb 16 b8 10 3b 05 39 e0 3c
       0.017532494 -0.0072613764 0.002208238 0.027370939
0000b0 f9 83 9c bc 06 f1 38 3c 62 1a 63 bc 3a f6 8a ba
       -0.019105898 0.011287933 -0.013861271 -0.0010601946
0000c0 ce 31 03 bd 9f 56 a9 bc df 13 9e 3d aa c9 db 3c
       -0.03202992 -0.020671187 0.07718634 0.02682956
0000d0 3b 65 30 bd 69 64 9a 3c 29 e7 61 3c 23 f5 ce bc
       -0.04306529 0.018846707 0.013788023 -0.025263375
0000e0 ba 70 08 3d b5 b3 3d 3d e9 05 74 3c 96 0b 61 3a
       0.03331063 0.04631396 0.014893987 0.0008584795
0000f0 ed 6a dc 3b 0f 64 76 bd 8a e3 88 bc d2 17 e9 bc
       0.0067266137 -0.060154017 -0.016710062 -0.028453741
000100 40 a4 d1 bc 9c db 53 bd d9 d7 bb bc 42 6f be 3c
       -0.025591016 -0.051723108 -0.022930073 0.023246411
000110 3d d8 93 3c 4a 8e 5c 3b d7 6d 60 bb 62 2a ec 3c
       0.018047446 0.0033654147 -0.0034245157 0.028828803
000120 e4 40 2a bb 8e c0 d8 3b 78 96 f9 3c 10 e4 4c bd
       -0.002597862 0.006614751 0.030467257 -0.050022185
000130 1f 49 16 3c eb 3c 6e bc ae 5e 0c bc 5f 41 0f bd
       0.009172707 -0.014540891 -0.008567495 -0.034974452
000140 1f 8e 59 3c e5 15 c9 bb 24 b1 3d bc fe e5 76 bc
       0.013278513 -0.0061366432 -0.011577878 -0.015069483
000150 97 ee cf bb a6 ba 35 bc 6b 75 43 3d 9c ee bc 3b
       -0.006345581 -0.011091864 0.0477194 0.005765749
000160 14 0a 1e bc 72 14 42 3c 2c c0 e3 39 74 31 0b 3d
       -0.0096459575 0.011845695 0.00043439993 0.03398271
000170 6d d3 81 3b f3 7a 70 3c 8d 42 0a 3c 3c 22 fa 3b
       0.0039619715 0.014677751 0.0084387185 0.0076334756
000180 91 17 c0 3c 51 21 21 bb 77 40 6f 3c 7e b1 33 3c
       0.023448737 -0.0024586509 0.014602772 0.01096761
000190 e1 84 d3 bb f1 bf dd bc d2 60 48 bc b9 39 09 3d
       -0.0064550494 -0.027069064 -0.012230115 0.033502314
0001a0 b4 77 8b bc 2d 93 c1 bc 47 4f 8a 3d 2a 11 48 3b
       -0.017024852 -0.02362975 0.06753402 0.0030527809
0001b0 0d be a0 3c d6 2a 84 3c 2c 8f b2 bc 64 74 63 3c
       0.019621873 0.016133707 -0.021796785 0.01388273
0001c0 38 86 4b bd 32 30 eb ba 15 9d 13 3d 00 51 b0 3c
       -0.049688548 -0.001794344 0.036038477 0.021522999
0001d0 5e be ea 3a 4d 28 22 3b 6e ee 3f 3d 35 77 be bc
       0.0017909517 0.002474326 0.046858244 -0.023250202
0001e0 55 ed d6 3a 11 77 89 3b 76 ff 8e bc 9e 96 8f bc
       0.0016397635 0.004195102 -0.017455798 -0.017527875
0001f0 ef 89 fb 3b 34 ec de bb 56 cf a7 bc eb 5a 2e 3d
       0.007676355 -0.00680306 -0.020484608 0.042567175
000200 a6 29 db 3c 9c 85 fd 3b 02 71 3b 3c 3a 47 e5 bc
       0.026753258 0.0077368747 0.011440517 -0.027988065
000210 d8 7b 0d bd ac 44 a7 bc 1a cf 00 bc 48 94 d0 bc
       -0.034541935 -0.020418487 -0.007861877 -0.025461331
000220 8c ad 06 3d 66 0c a1 3c 85 52 8f bb 66 d8 5e bc
       0.03288035 0.019659232 -0.0043738508 -0.013601398
000230 fb 41 20 bb 3b d3 a6 bb 06 86 82 bc 18 5d 85 3b
       -0.002445339 -0.0050910986 -0.015933048 0.0040699355
000240 ff 84 85 3c 90 4d 76 3b d1 5c d9 3c 55 b9 99 ba
       0.016298769 0.0037582852 0.026533516 -0.0011728207
000250 9d 6c ab b8 17 ec b7 3c 33 5c 2a bc 41 ce b8 3c
       -8.174146e-05 0.022451444 -0.010397959 0.022559287
000260 51 d2 38 bd 7a 08 a8 bc d6 4b d6 3c 6b e2 8e bc
       -0.04512245 -0.020511854 0.026159208 -0.017441949
000270 eb 34 87 35 62 78 ec 3c 27 19 a2 bc 43 7c c2 3b
       1.0073685e-06 0.028865997 -0.019787384 0.0059352233
000280 08 d7 93 3b db 52 cb bc 80 8c bf 3c 0f cb f4 bc
       0.0045117177 -0.024819782 0.023382425 -0.029881982
000290 c5 e3 1f 3d d5 44 08 3c 90 9e ec bb 0d 0b dc 3c
       0.039035577 0.008317192 -0.0072210506 0.026860738
0002a0 b6 e1 96 bc 6a a7 e4 3c cc 58 15 bc c3 17 ef ba
       -0.018418174 0.02791186 -0.009115409 -0.0018241334
0002b0 c6 35 2a 3d 48 ee 03 3d 59 8e 96 bc a0 97 0c 3c
       0.04155519 0.032209665 -0.018378424 0.008581072
0002c0 6c c0 74 bb 77 85 af 3c 57 f8 1b bd dc 3e b5 3c
       -0.0037346138 0.021425946 -0.038078632 0.0221247
0002d0 34 75 d6 bc 62 95 61 3c d7 f8 41 3c ab 53 2e bb
       -0.026178934 0.013768526 0.011839113 -0.0026600163
0002e0 59 7f e3 3c 70 ab c6 3b ee 5d b5 bc 35 21 5d 3d
       0.027770685 0.0060629174 -0.022139516 0.053986747
0002f0 98 13 b8 3b cd 35 9e 3c 1f 12 80 3c 2c 63 75 bb
       0.00561757 0.019312764 0.01563364 -0.0037443144
000300 66 d3 6f bc 97 6a 73 bc ff 48 9d bc 04 78 d1 3c
       -0.014637804 -0.014856956 -0.019199846 0.025569923
000310 9c 59 f7 bc 51 38 11 bd df cd df bb b7 2b 7c 3c
       -0.030194096 -0.035454098 -0.0068299617 0.015391282
000320 a8 81 da 3c db e8 f1 bb 33 6d e4 3c cb fe 03 3c
       0.026673153 -0.007382495 0.027884101 0.008056353
000330 1a f0 c7 3c 35 c6 10 bd b6 2b 05 3d 5c 77 7f bc
       0.024406482 -0.035345275 0.03251239 -0.015592422
000340 07 9d 01 bc f8 d2 f4 3a 48 43 26 bd 1f e0 37 3d
       -0.007910973 0.0018678596 -0.04059151 0.044891473
000350 5b f5 81 bc 71 cb 6c 3d 11 8e b7 bc cb 2f 3b 3c
       -0.015864065 0.057811204 -0.02240661 0.011424969
000360 5b c1 87 bc e5 a0 d8 bc 5c 39 66 3c 27 59 c9 3c
       -0.016571691 -0.026443908 0.0140517615 0.024578644
000370 00 14 ac bc cc 8c 27 3d 50 29 89 bc c9 06 06 bd
       -0.02100563 0.04090576 -0.016743332 -0.032721315
000380 39 15 29 3d 89 cf 11 3b 6d d3 a3 bc ec 31 d3 bb
       0.041280005 0.0022248945 -0.019998277 -0.00644516
000390 65 10 9b 3c 6b d9 0f 3d 73 a5 12 3d 56 a1 21 3c
       0.018928716 0.035119455 0.035802316 0.009865126
0003a0 ee b3 52 ba 73 a5 aa bc e8 f9 97 3b 0e 71 3b 3c
       -0.0008037676 -0.020830845 0.0046379454 0.011440529
0003b0 1b b2 88 38 e5 1e 88 bc d9 34 04 bc 5b 5d 0a 3b
       6.51816e-05 -0.016616294 -0.0080692405 0.0021112773
0003c0 10 7a ae 3c c3 3d 49 bc ca 94 6a bc 41 e1 d9 bb
       0.021298438 -0.012282792 -0.014317701 -0.006649167
0003d0 46 10 7a 3c 38 05 24 bd 7f f5 d1 ba 78 6d 35 ba
       0.015262669 -0.04004404 -0.0016018598 -0.0006920914
0003e0 8f e4 af 3c b5 97 d9 bc 7a 3d ed 3b f7 df ec 3c
       0.02147129 -0.026561597 0.0072399946 0.028915389
0003f0 2c 38 04 bc 7f 3c 31 3c 63 ff 28 3d c7 f2 86 bc
       -0.008070033 0.010817646 0.04125918 -0.016473187

cls.0.bias f4 [256]
000000 83 56 ad 3c 1a ee b0 bc e3 8e 63 bb 42 68 98 3c
       0.021159416 -0.02159791 -0.0034722618 0.018604401
000010 dc 35 15 3c bb 7e 3a 3d 10 bf d0 39 a8 4c 83 bb
       0.009107079 0.045531016 0.00039815204 -0.004006941
000020 c2 79 fe bc ca cf 85 3a 35 97 8f ba ae fa ed ba
       -0.031063918 0.0010209021 -0.0010955097 -0.0018156373
000030 df 7f 1c 3d 38 2c 5f bc 62 1a d2 bb 02 c1 15 3d
       0.038207885 -0.013621382 -0.0064118365 0.03656102
000040 b7 24 19 bc d6 db bf 3c 59 73 9b 3c 28 1c c0 3b
       -0.009347132 0.023420256 0.0189759 0.0058627315
000050 00 0a c7 bc d2 b0 32 bb 03 66 2a 3c c5 90 14 3c
       -0.02429676 -0.0027266038 0.010400298 0.009067719
000060 f2 56 02 bd d8 71 2a bc c6 35 b4 bc e8 4d 05 3d
       -0.0318212 -0.010403119 -0.021998297 0.032545
000070 1d c6 77 bc 0c a3 7a 3b 3c dc 8e bc f7 64 97 bb
       -0.0151229175 0.0038244156 -0.017439 -0.0046201902
000080 36 6d 5b 3c 19 1b 35 3b 61 5f 6a bc 55 64 ce bc
       0.013392737 0.002763456 -0.014304967 -0.025194326
000090 ac ba 9b bb 7d b1 ce bc 0a ab b3 bc 7e 57 d3 bc
       -0.0047524776 -0.025231117 -0.021932144 -0.025798555
0000a0 bd 7d 97 bc 26 bb 35 bc d2 6d 76 bb c3 7d 34 3b
       -0.018492574 -0.011091983 -0.003760208 0.002754078
0000b0 d3 fd 61 3c 10 e0 8a bb 4b 42 0d 3c 79 b7 ca 3b
       0.013793427 -0.004238136 0.0086217625 0.0061864224
0000c0 d9 5b 25 3c 22 92 1d 3d 39 cc 31 bc 1f e4 2d bd
       0.010092699 0.03846944 -0.010851913 -0.04245388
0000d0 f9 e0 e3 bc b9 85 18 3d a3 09 a0 3c 22 7a d8 bc
       -0.027817236 0.037236903 0.019535845 -0.026425425
0000e0 88 83 05 3c 18 47 39 bc e5 9d 18 3d 45 84 63 bc
       0.008149035 -0.011308454 0.037259955 -0.013886516
0000f0 9a 5e ce 3c f2 b0 70 bc 3f 59 3b bd b7 62 41 bc
       0.025191594 -0.014690625 -0.04573941 -0.011803321
000100 d3 4f d3 bc f9 22 b1 bc 8a 3a 09 bd a0 bc 37 3c
       -0.0257949 -0.021623122 -0.033503093 0.011214405
000110 f6 06 24 bc 0c c5 0f 3d db 87 0f 3d d1 62 e2 bb
       -0.010011425 0.035100028 0.03504167 -0.0069087525
000120 1b 06 58 bc d2 fc 2d 3d 36 62 00 3d 5f 0b e0 3c
       -0.013185049 0.042477436 0.03134366 0.027349172
000130 63 1c 1a 3d 05 ff a6 3b 6f 59 be 3c 08 04 af 3c
       0.037624728 0.0050963187 0.023236005 0.021364227
000140 ef 87 ea 3b 42 bb 77 3c 6a ae be 3c 5c 00 65 3c
       0.007157318 0.015120329 0.023276526 0.013977136
000150 af 1d 07 bc 95 63 ba 3c 0f 99 f0 bb af f8 e5 bc
       -0.008246823 0.022752563 -0.0073424648 -0.028072683
000160 20 b7 14 bd 28 a3 ad 3c a7 c8 d9 3c 96 24 8a 3c
       -0.036307454 0.021195963 0.026584936 0.016863149
000170 88 08 90 bb 67 24 cb bc 25 6b cc 3b 53 3b ff bb
       -0.0043955483 -0.024797631 0.0062383586 -0.0077890544
000180 b8 3a 5a 3c 72 98 16 bb 67 d7 5a 3c 58 9b 0b bd
       0.013319664 -0.0022979048 0.01335702 -0.034083694
000190 a7 3c 5e bb 8f b9 1b bd 4d 64 bc 3c 4e b8 92 bc
       -0.0033910663 -0.03801876 0.022997046 -0.017910149
0001a0 45 6a 1f 3d 39 4f 23 3c 06 66 47 3c 0b 79 c6 bb
       0.038919706 0.009967619 0.01217032 -0.00605691
0001b0 e7 e4 15 3c bd 10 41 bc 70 03 e1 3b 30 c7 d4 3c
       0.009148813 -0.011783776 0.006866865 0.025973886
0001c0 11 b7 0b 3d 86 12 e3 3c 4d e0 05 bd 9b 28 97 bc
       0.034110133 0.027718794 -0.032684613 -0.01845198
0001d0 ef 58 56 bc bc 4e df bc 40 b8 41 3c de a0 24 3c
       -0.013082727 -0.027259223 0.011823714 0.010048119
0001e0 20 41 09 3c 92 96 70 3c d7 a7 21 bd 5f 28 6b 3d
       0.008377343 0.014684336 -0.039466705 0.057411548
0001f0 f3 d8 d9 bc 5a 4f 50 3c cd 56 ac bc f2 fb fc bc
       -0.026592707 0.012714231 -0.021037484 -0.030881856
000200 c0 c7 26 bd 64 04 a7 ba f4 b5 39 bb b7 85 9c 3a
       -0.04071784 -0.0012742397 -0.0028337212 0.0011941706
000210 21 d0 aa bc 3f 6e 49 3d 34 d6 16 3d ef 28 69 3c
       -0.020851197 0.049177404 0.036825374 0.014230951
000220 75 1b 58 bc c1 77 0d 3d 40 44 d8 3b 5d a5 11 bd
       -0.01319014 0.034538034 0.006599933 -0.035558093
000230 88 cd 39 bd 77 10 da 3a 51 bd 8c 3c 7a 5d bd bc
       -0.045362025 0.0016636987 0.017180117 -0.023115862
000240 01 2a 24 3c 91 ee 9e 3c 52 63 85 bc 43 e2 02 bc
       0.01001978 0.019400867 -0.016282711 -0.007988515
000250 08 76 c9 3c 1b 0f f0 bc 2a 5a c4 ba fd 5c bf bc
       0.024592414 -0.029304078 -0.0014980484 -0.02335977
000260 ce 11 67 3b 33 4b 79 3d 19 c8 3e 3d 6b c8 09 3d
       0.0035258415 0.06086273 0.046577547 0.0336384
000270 b0 36 98 ba da 8a 7e bc d4 20 f5 bc a9 6a a5 3b
       -0.0011612978 -0.0155360345 -0.02992288 0.0050481153
000280 f5 1c 8b 3b 12 bb 0c 3c 30 6b ce bc e1 9a 07 bc
       0.0042453953 0.008589523 -0.025197595 -0.008276672
000290 51 fd 8e bc 9d 82 7b 3c c5 50 9d b7 f0 f0 73 3c
       -0.017454775 0.015350965 -1.875347e-05 0.014888987
0002a0 3a 9c 30 bb ea f0 e2 bc 64 2f 0f 3c 2d b4 60 3c
       -0.0026948587 -0.027702767 0.008739326 0.013714832
0002b0 72 17 b8 3b e5 ed 6d 3a fd a0 29 3d dd 1d 9a 3c
       0.0056180293 0.00090762816 0.041413296 0.018813068
0002c0 70 dc fa bc f2 67 31 3c e6 09 b5 3c 5b bb f1 3c
       -0.03062269 0.010828005 0.022099447 0.029508283
0002d0 b9 d9 93 bc 26 99 45 bc 7d d9 1c 3d 57 09 cd 3c
       -0.018048154 -0.012060439 0.03829335 0.025028868
0002e0 f9 c7 d6 3b 32 6d b9 3c 09 95 26 3c 0f 1c 71 3c
       0.0065546003 0.022635076 0.010167369 0.014716162
0002f0 41 25 6a bc ef 41 d4 bc 36 38 6f 3b 6d 7b 10 bd
       -0.014291109 -0.025910346 0.003650201 -0.035273958
000300 71 e7 d8 bc 04 f9 5b bc ce fd 91 3c c6 e1 e2 3c
       -0.026477547 -0.013426069 0.017821219 0.027695548
000310 bd fb fd bc f2 37 b9 3c f8 8f e0 ba e7 db dc 3b
       -0.031003827 0.022609685 -0.001713275 0.0067400816
000320 87 dd 90 bb 8e 3a 9b 3c a9 fc 33 bc 41 ec 0c 3d
       -0.0044209394 0.01894882 -0.010985532 0.034404997
000330 a8 9a 2e 3c e9 ca 0c 3b be b9 a5 3c 62 d1 a9 3c
       0.01065699 0.0021483249 0.02023017 0.020729724
000340 84 2c 53 3c 5b f6 3c bc 8a 22 b0 3c e1 5b 3f bb
       0.012889031 -0.011533345 0.021500845 -0.0029199051
000350 5c f2 bb 3c 6c 46 c5 bb e0 c1 50 bc 90 83 64 bc
       0.022942714 -0.006020358 -0.012741536 -0.013947383
000360 59 84 26 bc d4 af e0 bc 56 8f 4b bd 0f b7 03 3d
       -0.01016339 -0.027427591 -0.049697243 0.032157
000370 22 2d 9e 3b ac 63 a6 bb a7 3b 2d bd 80 0c 30 bd
       0.0048271576 -0.0050778 -0.042293217 -0.04298067
000380 18 2e a6 bb ed c5 5e bd ea 09 91 bc 1e 86 ce 3c
       -0.005071413 -0.054387975 -0.017704923 0.025210436
000390 c4 11 85 bc 3b 49 1d 3d 97 dd 0b bb 37 62 8a bb
       -0.016243823 0.038399916 -0.0021341795 -0.004223134
0003a0 03 3d 02 bd 2e 8f 04 3d b4 86 e9 3c 68 ff 75 3c
       -0.031796467 0.03236311 0.028506614 0.015014507
0003b0 bf 1d e2 3c 00 eb 0a bd 93 4a e0 3c 88 ff 46 bc
       0.027602075 -0.03391552 0.02737931 -0.012145884
0003c0 5b 1d 49 bc 79 b4 95 bc 38 bb 83 3c 80 06 21 3c
       -0.012275065 -0.018274533 0.016080484 0.00982821
0003d0 f4 4a 8d bc bc 99 f3 3c d6 4f 1f 3d 9f af 8f 3c
       -0.017247654 0.029736392 0.038894497 0.017539797
0003e0 d4 02 2f bc 42 e4 e4 bc ca 48 cc bc 0f 10 18 bd
       -0.010681827 -0.027940873 -0.024937052 -0.03712469
0003f0 c1 38 04 3c 02 fd ec 3a cd d8 46 bc 19 b8 8f 3b
       0.008070172 0.0018080773 -0.01213665 0.00438596

cls.3.weight f4 [128, 256]
000000 38 c0 e9 ba 0a 63 4d bd 58 9f f2 bb 67 1a 44 3d
       -0.0017833775 -0.05014328 -0.007404249 0.04787674
000010 6c 79 33 3d 1a 36 43 bd 61 7b eb 3c 10 47 e0 bc
       0.04381697 -0.047659017 0.028745355 -0.027377635
000020 19 56 50 3d 8f 41 f3 3c fa 61 fb 3c a7 cb 1b 3d
       0.05086336 0.029694347 0.030686367 0.038036015
000030 01 b7 73 3c 72 86 c3 3c c8 08 4b 3d 2b b9 2f 3d
       0.0148751745 0.02386782 0.04956892 0.0429012
000040 60 e2 a9 bc 42 d8 f2 3b 91 c8 bd bb 61 68 cf 3c
       -0.020737827 0.007411034 -0.0057917316 0.025318326
000050 24 da 40 bc 9e 77 4e 3b 4f ff 86 bc 8d 10 14 bc
       -0.011770759 0.0031504403 -0.016479162 -0.009037149
000060 07 f9 cf 3c 0a 22 ee 3b 55 43 2e 3d 6c 46 6a bd
       0.0253873 0.0072672414 0.04254468 -0.057196066
000070 e4 fc 3d 3b 94 63 da 3c 4e 05 2d bc 38 a8 44 bc
       0.0028989846 0.02665881 -0.010560347 -0.012002997
000080 16 1c 8c 3d 9f fc 31 3d 5d c4 36 3d ed c6 2d 3d
       0.068412945 0.04345381 0.04462086 0.04242604
000090 c9 ea ba bc 42 4f 46 bd cb 9c c9 3b a0 cc 4f bb
       -0.022817032 -0.04841543 0.0061527244 -0.003170766
0000a0 39 50 a1 bc c6 19 ae bb 39 b1 e2 3c 57 3e a7 3c
       -0.019691573 -0.005313131 0.027672397 0.020415468
0000b0 7e 9e 3a bc 35 4c 8b 3d 8d 52 d9 3b 8a d7 cd 3c
       -0.011390327 0.06801645 0.0066321553 0.025127191
0000c0 de 85 3e 3a c6 4a e5 bc 70 4e 83 bd ad 4a cd 3c
       0.00072678726 -0.027989756 -0.06411445 0.025060022
0000d0 08 f5 19 3c 42 36 2d 3d 82 1d ae 3c 7d 3d 33 bb
       0.009396799 0.042288072 0.021254305 -0.0027349882
0000e0 24 28 4a bc 15 2b 39 3c 57 a9 35 bc a0 37 5e 3c
       -0.012338672 0.011301775 -0.011087737 0.013563067
0000f0 fe be fc bc 54 f4 68 3c c7 bd 4e bd 91 8d 62 bc
       -0.03085279 0.014218409 -0.050473955 -0.013827697
000100 4a 6d 1f 3d 68 6b 26 3d c6 cd 1f 3d 64 59 c7 3b
       0.038922586 0.040629774 0.0390146 0.0060836542
000110 b1 49 82 bc 5c 83 46 3c 83 cd c9 3c bd a3 14 3d
       -0.01590428 0.012116279 0.024634128 0.036288965
000120 b3 42 2a 3c 87 c0 11 bd 31 1b 04 3d d2 47 77 3c
       0.010391879 -0.035584 0.032252494 0.015092807
000130 70 e9 1d bd e9 c7 37 3d f0 65 95 3c cf ab e7 3c
       -0.0385527 0.044868384 0.018237084 0.028280167
000140 cf c8 ab bc b8 a2 8d bd 0d 52 59 bd 39 c7 52 bb
       -0.020969776 -0.06915802 -0.053056765 -0.0032162203
000150 b4 a8 78 ba 32 89 87 3c a1 f4 15 3d 8b 6a f0 bc
       -0.0009485588 0.016544912 0.03661025 -0.029347679
000160 95 a4 3d 3d 46 21 4e 3c 04 35 ab 3c b7 2c 73 bd
       0.046299536 0.012581175 0.020899303 -0.059368815
000170 c6 c6 3d 3d e6 bb b3 bc 23 6d 60 b6 46 a3 a0 bc
       0.046332143 -0.021940183 -3.3442127e-06 -0.019609105
000180 0f 14 88 bc 3e 4d 88 3d fe cb 68 bd 36 f8 73 3d
       -0.016611127 0.06655358 -0.056835167 0.059562884
000190 b0 38 74 bc e0 8b 8d 3b f4 41 5c bc 7c ea 82 3d
       -0.0149060935 0.004319653 -0.013443459 0.063923806
0001a0 0f 5b 41 bc d5 53 38 bb 95 84 ce bc 7e be 15 3d
       -0.011801495 -0.002812614 -0.025209704 0.03655862
0001b0 4b 32 be 3c 8a c5 65 bb c9 a1 16 bd 46 4b 7d 3c
       0.02321734 -0.003506037 -0.036775384 0.015459841
0001c0 32 0b df 3c 2b d9 c9 bc c4 45 33 bc 87 22 1d 3d
       0.027227018 -0.024639687 -0.010941926 0.038363006
0001d0 39 9a 89 3c cb ec e7 bc 1f 51 98 bb 0f cf 22 bc
       0.016797172 -0.028311154 -0.0046483423 -0.009937062
0001e0 7d 7b 65 bd b0 41 07 3d e8 4d 36 3d f1 df a3 bd
       -0.05602597 0.03302163 0.04450789 -0.08001698
0001f0 e2 28 86 3d 48 4b 3c 3c b3 44 08 3a 7d 06 07 bd
       0.065507665 0.011492558 0.0005198225 -0.032965172
000200 c6 48 32 3c 12 4b 22 3d d0 ca 37 3d 99 01 1c bd
       0.010881608 0.039622374 0.04487115 -0.03808746
000210 45 2c 8f 3c 4c 01 df 3c 8a 9b 0a 3d d8 ea 82 3b
       0.017477164 0.027222298 0.03383974 0.0039952807
000220 23 81 cd bc af 6f ef 3b e6 4b b7 bc 7a 4d 34 bd
       -0.025085991 0.007307015 -0.022375058 -0.0440192
000230 2c 67 d3 bc 22 95 2a bd 5f 2d 4f bb 25 20 bc bc
       -0.025806032 -0.04164613 -0.0031612737 -0.022964546
000240 a2 b3 c6 3b 0c b5 30 bc 1b 1d 29 bd ac a6 52 bd
       0.0060638944 -0.010785352 -0.041287523 -0.051428482
000250 a0 9c e4 bc aa ff ed 3b 63 95 e9 3c 0b b1 59 3c
       -0.027906716 0.0072631435 0.028513616 0.013286839
000260 9e 77 76 3c 68 27 29 bd 81 cb 00 3d 16 6c 96 3c
       0.015043167 -0.041297346 0.031444076 0.018362086
000270 df 27 c6 3b 56 39 1a bd 38 40 0b 3d ef d0 3f bc
       0.0060472335 -0.037652336 0.03399679 -0.0117075285
000280 29 d6 5c bd 8d a9 a0 bc d6 09 99 3b f5 c5 22 3d
       -0.053915177 -0.019612098 0.004670362 0.039739568
000290 5b 96 b0 3c ac a0 24 bd 40 04 e5 3c e1 89 23 bd
       0.02155607 -0.04019229 0.027956128 -0.039926413
0002a0 12 22 55 3d 13 7c d0 3c e3 d8 41 3d 0c bb 45 3d
       0.052034445 0.025449788 0.04732598 0.048274085
0002b0 c6 dd ff 3c c2 bc a0 3c 90 b9 32 bd 0a cd 17 3d
       0.03123368 0.019621257 -0.043633997 0.037060775
0002c0 e6 02 88 39 31 ac 49 3d 3a e4 73 bd 26 3f ef 3c
       0.000259421 0.04923648 -0.059543826 0.029204916
0002d0 e1 eb db bc 1b 04 0e 3d 2a 04 1d bd 30 ba 2b bd
       -0.026845874 0.034671884 -0.03833405 -0.04192561
0002e0 87 8b 54 3d b2 39 f3 3c 3f 1c 5c 3d b9 8f a5 3c
       0.051890876 0.029690597 0.053737875 0.020210134
0002f0 25 e1 94 3c 6e 56 11 3d e3 fe 3f bd c6 15 57 3d
       0.018173764 0.035482816 -0.04687394 0.052511
000300 f4 3f d8 3c 87 db ad bc aa 9a a4 3c ed 53 38 bd
       0.026397683 -0.021222843 0.02009328 -0.045001913
000310 15 75 a7 3c d4 eb 7d 3d 92 b1 dc bc d9 43 c9 3b
       0.020441571 0.06199248 -0.02694014 0.0061421213
000320 58 56 a2 3c 24 53 e4 3c 1d 52 a7 bc ce 40 6b bd
       0.019816563 0.027871676 -0.020424897 -0.05743485
000330 d8 a8 d7 ba 2c 60 df 3c 14 26 41 3d 9e 12 29 bc
       -0.0016453518 0.027267538 0.047155455 -0.01031938
000340 05 09 b1 bb e6 a8 f9 bc a7 24 4f 3d fa d5 bd ba
       -0.0054026865 -0.030476045 0.050572064 -0.0014483326
000350 d4 12 35 bd ad d6 07 3d 56 11 12 bd 87 dc f1 3c
       -0.04420741 0.033163715 -0.035661064 0.029524101
000360 e4 b8 69 bd dc 5e 4f 3d 17 0e 86 3d 8e ea cc bc
       -0.05706109 0.050627574 0.06545656 -0.025014188
000370 9b 6b 80 3c 0e 3e 66 bd 39 e2 1a bd 7a a8 72 3d
       0.01567631 -0.056211524 -0.0378134 0.059242703
000380 27 c2 2a bd d9 6d 9a bc 21 6c f5 3c 38 87 a7 bc
       -0.041689064 -0.018851208 0.029958786 -0.02045022
000390 64 7a 5e bb 0b c0 3c 3d bd 2e 25 bd ad 06 e7 3c
       -0.0033947462 0.046081584 -0.040327776 0.028201425
0003a0 de ef 49 bb e8 0c 4c bd a5 bf 0b 3d d6 a2 31 bc
       -0.0030813138 -0.049816996 0.034118313 -0.010842046
0003b0 b8 62 36 bd 33 48 da ba d6 12 7b 3d 64 9e 63 3d
       -0.04452774 -0.0016653597 0.06129726 0.055570975
0003c0 23 78 69 3b 6e e4 56 3c 78 fe 8d 3c 9c 0d 5d 3a
       0.0035624586 0.013115985 0.017333254 0.0008432509
0003d0 7c 87 69 bd 77 77 5d bd 75 bc 6a 3d ed 47 45 bd
       -0.057013974 -0.05406901 0.057308633 -0.048164297
0003e0 c6 0b 2a 3c 4a 02 62 bd 34 0a a5 3b b4 14 8a bc
       0.010378784 -0.055177964 0.0050366167 -0.016855575
0003f0 62 16 07 bd f1 d4 b5 3c 68 b0 ef 3c 33 ff e1 3c
       -0.03298033 0.022196265 0.029258922 0.027587509

cls.3.bias f4 [128]
000000 1b c3 4e bd 44 d2 4c 3d 53 f9 0d bd ec 44 cf 3c
       -0.050479036 0.050005212 -0.034661602 0.02530142
000010 1c da dc 3b f2 70 d3 3a 40 5d 32 3b 4c de 28 bd
       0.006739868 0.0016131683 0.0027216226 -0.041227624
000020 3f a7 82 bd 4a 27 26 3d d5 b9 00 bd ad 6e bf 3c
       -0.06379556 0.040564813 -0.031427223 0.023368204
000030 4b 38 ec bc 97 b8 b4 bc 50 43 e2 bc 7d a0 2c 3d
       -0.028835436 -0.022060676 -0.027619988 0.04214524
000040 bc 69 78 3b 86 cd 19 3c e4 a6 39 3c 2e 93 cb 3b
       0.003790482 0.0093873795 0.011331294 0.0062126135
000050 60 f9 20 3d 85 0f 0b 3b 21 44 02 3d 8c 59 62 3d
       0.039300323 0.0021218967 0.031803254 0.05526118
000060 f2 47 39 bd b8 f1 5e 3d 3f c7 79 bd d0 31 12 3d
       -0.045234628 0.05442974 -0.06098103 0.035692036
000070 8b 66 8f bd 01 54 24 bc fb 4f c2 bc 27 dc 9d 3c
       -0.070019804 -0.010029794 -0.023719778 0.019270016
000080 50 2d d9 bc 09 6c 57 ba 42 b1 e1 bb 7c 2b 25 bc
       -0.026510864 -0.00082176976 -0.006887586 -0.010081168
000090 c7 27 9f 3a fa ab eb 3b df 2f 98 bc 2a 9c bd 3a
       0.0012142592 0.007192132 -0.018577514 0.0014466096
0000a0 1f 29 ff 3c 07 f7 fc bc 08 bd ed 3c 53 27 5a 3d
       0.031147538 -0.03087951 0.029020801 0.05326016
0000b0 af 88 04 3d 09 2d 09 3d 20 d2 a5 3b 4f 8f 84 3d
       0.032356914 0.033490214 0.0050604492 0.064726464
0000c0 e9 46 4d bc c6 c5 62 bb 5a d8 dc bc b7 12 89 3c
       -0.012529113 -0.0034602745 -0.026958633 0.016732557
0000d0 5f 82 d9 3c f5 57 85 3d f5 b4 6f 3d 80 fd b3 3c
       0.026551424 0.06510917 0.058522183 0.021971464
0000e0 5d d1 38 3c e8 3b 2d bd 22 b2 15 3d c1 e6 5b 3d
       0.011280385 -0.04229346 0.036546834 0.05368686
0000f0 f8 fe 00 3d c1 c4 f3 3c f9 b2 89 3c 1e a9 72 bd
       0.031493157 0.029756906 0.016808974 -0.059243314
000100 4e e5 cb bc 12 03 01 3d c3 1f 44 bd 3a 9d 3b bb
       -0.024889614 0.03149707 -0.047881853 -0.002862765
000110 66 0f 7f 3d 76 9e 14 bd d8 42 5c 3b e5 7e 97 bc
       0.062270544 -0.036283933 0.0033609178 -0.018493125
000120 13 df 97 bc 3a 28 0c 3d 2d c1 04 bd 1e 5a 87 3d
       -0.018538987 0.03421805 -0.03241079 0.06608985
000130 ee 9e 37 bd 2c f0 27 bd 95 9c 11 3d 3e c5 58 bb
       -0.0448293 -0.04100053 0.03554972 -0.003307655
000140 8e 4d 51 3d 32 a2 1d 3b 0c 7d 99 3b 50 0e c2 bc
       0.051099353 0.0024052975 0.004684096 -0.023688465
000150 8a 6a 70 bd 4d 56 1d bd 6f 31 7c bd f2 d9 6c bc
       -0.058695354 -0.03841238 -0.06157058 -0.014456259
000160 4b e2 e4 3c 1f bd 1c bc 07 ee f4 bc 4b 49 7c bd
       0.027939936 -0.009566574 -0.029898657 -0.061593335
000170 6b 0c 8b 3c 75 99 3f 3c b7 6a 6c bd d2 31 3e bc
       0.016973695 0.011694302 -0.05771896 -0.011608558
000180 ab 4a 39 bd f3 d7 0d 3d 3f a2 3b 3d f9 97 31 bd
       -0.045237225 0.034629773 0.045809027 -0.043357823
000190 fd 1f f5 bc 21 0d 6f 3d 2f b1 23 3d 53 e3 70 bc
       -0.02992248 0.05836213 0.039963897 -0.014702636
0001a0 d2 b3 ed bc 2a 09 46 bd bf 3e a2 bc 60 ff 1b 3c
       -0.02901641 -0.048348583 -0.01980531 0.009521335
0001b0 4d a0 da 3c 22 67 cd 3c 9c 32 bd bc a0 6c 03 3c
       0.026687765 0.025073592 -0.023095421 0.008021504
0001c0 03 ec de bc f8 d2 b1 bc 78 0f 04 bd 08 a2 fe bc
       -0.027212149 -0.021707043 -0.032241315 -0.031083122
0001d0 a8 e6 86 3d 3b 1b b5 3c d7 26 b5 ba 6c 3e 50 3d
       0.06586963 0.022107711 -0.0013820779 0.05084078
0001e0 1d f7 d2 bb c6 d5 65 3d 31 c5 44 3d db 13 94 3d
       -0.0064381496 0.056112073 0.04803962 0.0723035
0001f0 b3 52 45 bd 87 ad da 3c ac a7 a3 3c 55 3f 72 3d
       -0.04817457 0.026694072 0.019977413 0.05914243

cls.6.weight f4 [64, 128]
000000 f3 a8 9e bd 5b 54 81 bd 9e 62 94 3c 48 1c 81 bd
       -0.07747068 -0.06314918 0.01811343 -0.06304222
000010 bb b2 b7 3d 7e fb 23 bd 34 fd 34 bd 27 21 2f 3d
       0.08969637 -0.040034764 -0.044186786 0.042756226
000020 89 c5 98 3d ef f8 09 3d cc 44 8b bd e9 4f 02 3d
       0.07459552 0.033684667 -0.06800231 0.03181449
000030 21 e3 db bc 1b e5 db 3c 33 72 36 3b ca 23 02 3c
       -0.026841702 0.026842644 0.0027839064 0.007943103
000040 c9 79 65 bd 62 73 56 3d 8e 9e 98 3c 4e 72 6b bd
       -0.056024347 0.05235613 0.018630292 -0.057482056
000050 10 4d 31 bd d6 2a 84 3c 42 12 cd 3c af b8 b2 bd
       -0.043286383 0.016133707 0.02503312 -0.08726632
000060 02 3c f8 bb 87 e4 8d 3d 02 6d 3e bd a9 26 93 3d
       -0.007575513 0.06928354 -0.046490677 0.07185108
000070 5e 50 c3 3d 20 a1 a6 3d 36 7c 2c bc 72 8a 2c 3d
       0.09536813 0.08136201 -0.010527661 0.04212422
000080 02 90 a2 bd ae a1 31 bd 00 69 17 3d 03 ea 1a bd
       -0.079376236 -0.04336708 0.03696537 -0.037820827
000090 30 8c 90 bd c2 df 6a bd 1a be b8 bd df 3b 56 bd
       -0.07057989 -0.0573423 -0.09020634 -0.05230319
0000a0 d2 0b be 3c c7 06 19 3d b3 23 47 bd 11 8e b5 bd
       0.023198996 0.03735998 -0.04861803 -0.08864988
0000b0 a1 5d 9e bd ed a8 78 bc 61 14 33 3c cd da 39 3d
       -0.07732702 -0.015176994 0.010930152 0.04537468
0000c0 4a 87 ec bc 71 80 7f 3d fd c6 24 3d f5 77 8f 3d
       -0.028873105 0.06237835 0.040228833 0.07005302
0000d0 d2 f1 9f bd 8f c6 8f 3d cf 4d 76 bd 2f 19 86 3d
       -0.078097954 0.07020294 -0.060132798 0.06547772
0000e0 e7 60 d3 3c 68 f5 78 bd 47 8b 74 bd 7b 26 1a bd
       0.025803043 -0.060780913 -0.059703138 -0.037634354
0000f0 5a a2 21 bc 7b 92 6d bc 35 01 82 3d a0 06 da 3d
       -0.009865368 -0.014500256 0.063478865 0.10645795
000100 20 e6 8e bd 75 b4 d2 3c 46 35 43 bd 8f fa dd bc
       -0.069774866 0.025720814 -0.047658227 -0.027097015
000110 2e 29 54 3d f2 9f 43 3d 86 06 57 3c 84 3f 57 3d
       0.051797085 0.047759958 0.013124114 0.052550808
000120 15 86 c4 bc 55 8b 37 bd bf 8a a6 3d 8e 49 6e bd
       -0.023989717 -0.04481061 0.081319325 -0.058175616
000130 20 42 65 3d 1d c6 1f 3d 78 28 4b 3d 10 88 8f 3d
       0.055971265 0.039007295 0.04959914 0.07008374
000140 6f d9 66 3d 0d 26 81 bd 61 ae 5b 3d 0f 4d a0 3d
       0.056359705 -0.06306086 0.053633098 0.07827198
000150 bc 53 6a 3d e7 2c 09 3d 65 22 96 bd 61 8d 58 bc
       0.05720876 0.033490088 -0.07330779 -0.013217301
000160 53 cd b4 3c dc da d4 3c 45 43 53 3d 40 f6 ff bc
       0.022070562 0.025983267 0.051577825 -0.03124535
000170 c0 80 6e bd 0f a4 3d bc 6f 63 fd bc f9 88 16 3c
       -0.058228254 -0.011574759 -0.030931203 0.00918793
000180 4d 72 3a 3d ef b6 a1 3b 6a e2 a1 bd f8 75 f8 bc
       0.045519162 0.0049351375 -0.07904513 -0.03032969
000190 bf 34 b1 bd d9 6e ae 3c 21 91 74 3d 11 75 2f 3c
       -0.08652639 0.02129309 0.05970872 0.010709063
0001a0 0a 42 a7 3d c8 94 ca 3d 74 02 5c 3d a6 37 d8 bc
       0.08166893 0.09891659 0.053713277 -0.026393723
0001b0 17 76 97 bc 14 7e af bd fa 55 a2 bb 8a 50 8e 3d
       -0.018488927 -0.08568969 -0.004954097 0.06948955
0001c0 8c 98 49 3d 74 f2 65 bc 4a 81 8d bd 6c 15 6a 3d
       0.049217746 -0.014034856 -0.069094256 0.057149336
0001d0 40 54 82 bd 9e 74 4b bd 68 3b 66 bd 71 f8 0a bd
       -0.06363726 -0.04967176 -0.056208998 -0.03392834
0001e0 94 09 89 bd f1 15 7f bb b5 87 c1 3b b2 18 2f bd
       -0.0669128 -0.003892299 0.00590607 -0.04274816
0001f0 60 88 b4 bd 53 58 9c 3b 90 ea 10 3d 4b 8b 4e 3d
       -0.08815074 0.0047712713 0.035379946 0.05042581
000200 b9 76 f9 bd a1 0b 89 3d 81 07 a3 bc 6b 2c 0c 3d
       -0.12180848 0.06691671 -0.01990104 0.034222048
000210 ca d3 b3 3c 27 56 91 3c ad b8 01 3d 97 c3 33 bc
       0.021951575 0.017741276 0.03167026 -0.010971925
000220 41 6b 4e 3d b2 d7 46 bd 68 11 58 bd f5 14 91 3d
       0.050395254 -0.048545547 -0.052750975 0.07084075
000230 e3 30 70 bd 28 71 be bc de 12 d9 3d 7b 2f 66 3d
       -0.058640372 -0.023247316 0.10599302 0.056197625
000240 a9 c0 78 3d 66 db bb bd e7 26 3d bd 0e 29 3f bd
       0.06073061 -0.09172706 -0.04617968 -0.046670012
000250 13 51 25 bd 9d cb 75 bd 19 f4 1a 3d c2 e6 19 3d
       -0.04036052 -0.060008634 0.037830446 0.037573583
000260 0d 3a 3f b9 21 2f cc bd 46 2b 48 3d 90 21 a5 3d
       -0.00018236805 -0.099699266 0.048869394 0.08063042
000270 4a a3 8f 3c c0 89 64 3d 22 18 f7 bc aa 1b 6f 3c
       0.017533917 0.05579543 -0.030162875 0.014593998
000280 4d 26 89 3c 51 d8 e3 3d 67 5b d3 bd 41 54 86 3c
       0.016741896 0.111252435 -0.10320168 0.016397597
000290 1c ce e3 3d 6b 4a c2 3c 6e 88 06 3d b2 33 a3 bd
       0.111232966 0.023717126 0.032844953 -0.079688445
0002a0 53 b8 5e 3d 60 20 30 3d 67 e3 04 3d 80 7e b7 bd
       0.054375004 0.042999625 0.03244343 -0.08959675
0002b0 44 4a 92 ba 52 50 aa 3d 8c 2e 40 bd 79 d3 4e bd
       -0.0011161049 0.08316101 -0.04691939 -0.050494645
0002c0 be 00 46 3c 1a dc cc bb 73 6e 93 bd d5 93 8e bd
       0.012085138 -0.006251824 -0.07198801 -0.069617905
0002d0 87 73 e5 3c 9e df b1 3b 01 a5 5c bb 0b 7f 98 3c
       0.02800919 0.0054282686 -0.0033667686 0.018615266
0002e0 72 93 02 3d 90 6c a1 3c fc 65 bd 3d f9 eb 3f bd
       0.031878896 0.019705087 0.092479676 -0.0468559
0002f0 94 7b 97 3d 56 72 30 bd 6a 1e 0b bb d1 a6 80 3d
       0.073966175 -0.04307779 -0.0021227845 0.06281818
000300 5e 69 cd bc 97 dd 3d bd a1 19 ba bd 8d 4e 94 bd
       -0.025074657 -0.046353903 -0.090869196 -0.07241545
000310 01 b9 8a bd 1c 34 b4 3c 17 71 cc bd 20 14 b9 bb
       -0.06773568 0.021997504 -0.09982508 -0.005648151
000320 3d 8c 13 3d 82 bb 8a 3d 7c 13 74 bd d3 4b b1 bc
       0.036022414 0.067740455 -0.059588894 -0.021642601
000330 e1 6e a1 bd 50 5d 43 bd f5 50 f2 3c e8 23 13 3d
       -0.078824766 -0.04769641 0.029579619 0.035922915
000340 0c 93 00 3b e2 07 8c bd 8d 43 b3 3d 26 51 84 bd
       0.0019618897 -0.06837441 0.08753119 -0.0646079
000350 c8 7b 31 bd e0 ff 82 3d 37 8e 2c 3c a8 a6 ad bd
       -0.043330938 0.063964605 0.010531954 -0.08479053
000360 48 98 8c 3d 25 66 36 bc 3e 03 f4 bd 35 df 6f 3c
       0.06864983 -0.011132752 -0.11914681 0.014640619
000370 ef c5 94 bd 02 2e 02 be 5e a9 25 3d c3 a9 b1 3c
       -0.07264315 -0.12712863 0.040444724 0.021687394
000380 94 28 aa 3c a3 cb d5 bb 73 b8 79 bb d7 5c 9a bd
       0.020771302 -0.0065245195 -0.0038104325 -0.07537239
000390 bd de b0 ba c3 ef 49 3c 4a 83 e7 3d 19 3d 9a bd
       -0.0013494116 0.01232523 0.11304338 -0.07531185
0003a0 b8 5a b4 bd 0f 45 1c bd 5a 4d 5d 3b 18 f0 de 3c
       -0.08806366 -0.038151797 0.003376803 0.027214095
0003b0 05 5f 9e 3d 39 c0 37 3c 4e 00 27 3c 8f 40 ac bd
       0.07732967 0.011215263 0.010192944 -0.08410751
0003c0 d4 35 03 3d 5a a7 85 3c 0a 64 1c 3d 85 83 7c bd
       0.032033756 0.016315151 0.038181342 -0.061648864
0003d0 17 3c 7b bd 26 c1 58 3d f9 44 b1 3d e1 1e 1a bc
       -0.061336603 0.052918576 0.086557336 -0.009406776
0003e0 d1 53 14 3c b9 43 6e 3d 4b 46 4e 3d d1 7e ba 3d
       0.0090531865 0.058170054 0.050360005 0.091062196
0003f0 e0 2a f6 bc a8 56 8f bd f0 4f 82 3d 45 17 89 38
       -0.030049741 -0.0699895 0.06362903 6.537003e-05

cls.6.bias f4 [64]
000000 6d 3e 1c 3d 32 df 6d 3d 8b 99 99 3b f7 80 19 bc
       0.03814547 0.058074184 0.004687493 -0.0093691265
000010 c6 9e 7f bd 3c b9 a6 bc 1b a3 9c bd 4c 97 25 3d
       -0.062407278 -0.020351999 -0.076482974 0.04042749
000020 22 8c 1e 3d 07 da 28 bc ed 7d 0f 3c 3a 80 61 3b
       0.03870786 -0.010305888 0.00875805 0.0034408704
000030 74 4e d9 3b 1a 02 bc bd 05 4b 0b 3d e8 fe 35 3d
       0.006631667 -0.09180088 0.03400709 0.04443255
000040 85 38 c1 bd 32 90 5b bd 57 67 31 bd 54 99 0b 3e
       -0.09434608 -0.053604312 -0.043311443 0.13632709
000050 fd c2 19 3d 84 f3 12 3d 42 9a 96 3c a7 fc c8 bd
       0.03753947 0.035876766 0.018384103 -0.098138146
000060 a5 a0 7a 3d cf be b2 bd 9d 5a aa bd f9 69 71 3d
       0.06118836 -0.087278 -0.08318064 0.058938954
000070 b0 af bd 3d f2 6d cc 3c 26 6f a8 bd 73 30 78 3d
       0.09262025 0.02495477 -0.08224325 0.06059308
000080 d0 06 63 3c b8 ae 1a bd 9d 29 03 3d 5a 4b 94 3c
       0.013856605 -0.03776428 0.032022107 0.018102337
000090 b8 41 7a 3c c7 7f 3b 3b 54 88 bd 3d 1c 8b c7 3d
       0.015274458 0.0028610097 0.09254518 0.0974333
0000a0 c7 7f 24 bd 48 ac 96 3b cc 4d 7a 3d 30 40 ab 3a
       -0.04016092 0.0045981742 0.06110935 0.0013065394
0000b0 a7 d9 d2 3c 11 9a 52 bc b4 fe 62 bc 8e ce 9d bd
       0.02573855 -0.012854115 -0.013854671 -0.07705413
0000c0 4c c3 d4 bd bf f2 6e bd 0e 7a 8a bd 0a 9b 84 bb
       -0.103888124 -0.05833697 -0.06761561 -0.0040468024
0000d0 99 3b 99 3d d9 eb 5c bd 63 f3 c8 3c fb 9c be 3d
       0.074820705 -0.05393586 0.024530118 0.093072854
0000e0 70 4c b2 bd 9b 3c 9c 3c de e2 33 bd 21 c9 b7 3d
       -0.087059855 0.019071868 -0.04391753 0.08973909
0000f0 b8 b9 85 3c 74 08 77 bd 45 9f 12 3d 02 42 d6 3b
       0.01632391 -0.060310796 0.035796423 0.0065386305

cls.9.weight f4 [1, 64]
000000 e0 88 8c bb db e7 8d 3b ec 3f af 3b 84 ef ad bb
       -0.0042887777 0.004330618 0.0053481963 -0.0053080935
000010 29 5a 9a bb 12 27 bb bb 72 68 63 bb 60 68 88 bb
       -0.004710455 -0.0057114447 -0.0034699705 -0.004162833
000020 b8 c6 89 bb b9 74 aa 3b b1 79 88 bb 0e f7 b3 3b
       -0.0042045973 0.0052019027 -0.0041648974 0.0054920977
000030 68 4c b8 bb 64 95 cb bb 63 7e ba bb 2d bf 96 3b
       -0.0056243427 -0.006212877 -0.005691336 0.0046004266
000040 85 fd 81 bb 9f ec a0 bb 71 f7 da 3b 81 6d 9c 3b
       -0.0039669895 -0.00491102 0.0066823293 0.004773796
000050 f8 db c2 3b 85 67 c5 bb c4 1d b4 3b 05 81 a6 bb
       0.0059466325 -0.0060243034 0.0054967124 -0.0050812983
000060 5f b4 9a bb 20 11 d2 bb 77 db 86 bb da 0a 88 bb
       -0.004721209 -0.006410733 -0.0041155177 -0.004151684
000070 b3 27 95 3b 0e d9 be 3b 3d 9b 9c bb bc 29 a9 3b
       0.0045518517 0.005824215 -0.004779248 0.005162446
000080 72 61 bf bb b7 d2 be 3b 03 49 dd 3b 01 5d d4 3b
       -0.005840474 0.005823459 0.0067530884 0.0064808135
000090 c5 0f f5 3b 1a fc cc 3b ac 01 d6 3b 46 c4 d3 3b
       0.0074786865 0.006255639 0.006530961 0.0064626066
0000a0 a2 d5 9c bb e1 29 c6 3b 0b b9 91 bb a8 67 55 3b
       -0.004786209 0.006047473 -0.0044471077 0.0032563005
0000b0 79 eb 90 bb ce cc bd bb a7 d2 b6 bb 3a 70 d1 bb
       -0.004422602 -0.005792237 -0.005579311 -0.0063915523
0000c0 d1 20 dd bb 02 ca b9 bb 56 8d 80 bb c5 e1 87 bb
       -0.006748297 -0.005669833 -0.0039230986 -0.004146787
0000d0 f9 1f 9a 3b 42 01 8f 3b a7 63 7c bb 84 e0 9d 3b
       0.0047035185 0.0043641636 -0.0038511546 0.004818024
0000e0 49 10 d5 bb 54 cb 99 bb 90 d7 b0 bb 27 79 ab 3b
       -0.0065021855 -0.004693428 -0.005396791 0.0052329483
0000f0 7a 87 b2 3b 68 7d 88 bb 84 25 a5 bb 68 9b d9 3b
       0.005448279 -0.00416534 -0.0050398726 0.0066408403
