src/controllers/three_cameras/models/mlp_intersection_50_3c.pth (torch, 955856 bytes, 7 tensors)

cls.0.weight f4 [256, 768]
-0.08048516 0.04579263 0.03119701 0.05151868 -0.047756065 -0.024162484 -0.05375254 0.060439967
0.048360486 0.036310617 0.030495368 -0.048484802 -0.11732364 0.070930354 0.10166181 -0.15834469
-0.038172264 -0.040867664 -0.083855085 -0.032735016 0.03298463 0.005897029 -0.01031804 -0.077006884
0.10130117 -0.04248802 0.010959819 0.11134601 0.07397363 0.029710941 0.029047243 0.051036086
0.017422596 0.014969012 -0.062980734 -0.033851076 -0.023675688 -0.059800513 0.021465717 -0.002971996
0.017420754 0.07933183 -0.02534588 -0.028552216 -0.13447134 0.039435904 0.06457681 0.0033411842
-0.010485557 -0.016666912 0.004373103 0.044664226 0.03492481 -0.034232475 -0.058917444 0.0020716425
0.028421937 -4.645273e-05 0.025817903 0.086231254 -0.012608134 -0.015471218 -0.02242142 -0.013163835
0.059716202 -0.04186302 -0.19017605 0.06789812 0.106663845 0.021345377 0.1754352 0.026563281
-0.0507373 -0.027893063 0.04714704 -0.021064347 -0.007772998 0.004522495 -0.013840073 -0.08275282
-0.029924316 0.037347503 0.0002876819 0.08035181 -0.0016278932 0.0052963216 0.007043356 -0.074075826
0.050121676 -0.018654969 0.09178129 -0.051258285 -0.0105866 -0.08592889 -0.061009627 -0.06825154
-0.11023138 0.019812904 -0.044149756 0.007966967 0.039300404 -0.03966697 -0.04805581 0.03308232
-0.02645303 0.005358918 0.031324342 0.011389019 -0.08236877 0.061953604 -0.05461968 0.081859194
0.015356004 0.060759664 -0.07526449 -0.04656789 -0.009519249 -0.068077356 -0.049331762 0.022162266
-0.02649038 0.023907624 0.013821688 -0.0714215 0.07183682 0.028449947 0.032291993 -0.10543332
-0.013250301 -0.02131988 -0.054252077 0.06765569 0.011410813 0.010848092 0.0305767 -0.0041201026
-0.028170424 -0.0099562425 0.051275164 -0.0035976989 -0.08756206 0.07496866 -0.011676827 -0.0034883101
-0.026512057 0.08995335 -0.06202735 0.03217579 -0.007960812 -0.055724576 -0.019851906 -0.012555117
0.033219676 -0.0359453 0.05567723 -0.09169606 0.010833319 0.051982105 -0.00756835 -0.023252388
-0.10965251 -0.045877434 0.011891422 -0.10118807 0.008735448 0.08040223 -0.011814166 0.038657293
-0.010894776 -0.07662027 0.058513656 0.0016600878 -0.0038858936 0.031600866 0.04971362 0.0053128307
-0.064659804 0.05702736 -0.012271702 -0.091945015 0.025126748 0.0736908 0.098869 -0.0335628
0.014016865 0.044964492 -0.01605203 0.07307118 0.042338885 -0.036642365 -0.060176622 0.015900396
0.0020368495 -0.025031315 0.059501667 0.121621795 0.05033271 0.015652204 -0.055180635 0.014618244
-0.05537289 0.01511731 0.0592276 0.067754395 -0.028796498 0.02298816 -0.015659401 0.004964159
-0.04162618 -0.06203166 -0.06723064 -0.06641243 0.019796306 0.017092759 -0.07718053 0.0016618676
-0.06111557 -0.08528062 -0.016517892 0.008268337 0.0027995515 0.039172146 0.02681389 -0.0748368
0.007229466 0.15459245 -0.016381623 0.01577039 0.05003924 0.04688036 -0.0400483 0.044976708
0.015736176 -0.004637718 -0.020336041 9.254527e-05 -0.056605764 0.12098568 0.017591853 -0.056792438
0.022980822 -0.021981938 -0.05129212 -0.11716581 0.022750024 -6.0112172e-05 -0.011476327 -0.02441328
-0.015255487 -0.04496514 0.0533458 -0.054287262 -0.07202711 0.00598298 -0.011186883 -0.12702063
00000000: 67d5 a4bd 0e91 3b3d df90 ff3c 4005 533d
00000010: dd9b 43bd 67f0 c5bc a02b 5cbd e68f 773d
00000020: a515 463d 71ba 143d 6cd1 f93c 0098 46bd
00000030: 6047 f0bd ef43 913d 1134 d03d 1c25 22be
00000040: 855a 1cbd da64 27bd 37bc abbd 2715 06bd
00000050: e41a 073d dd3b c13b ff0c 29bc c9b5 9dbd
00000060: fd76 cf3d eb07 2ebd d090 333c 6009 e43d
00000070: 7d7f 973d 5c64 f33c 7cf4 ed3c 370b 513d
00000080: d5b9 8e3c 9640 753c 0bfc 80bd 6da7 0abd
00000090: 84f3 c1bc 62f1 74bd dfd8 af3c d2c5 42bb
000000a0: f8b5 8e3c ba78 a23d 2aa2 cfbc 56e6 e9bc
000000b0: dbb2 09be 8b87 213d d940 843d c5f7 5a3b
000000c0: 9dcb 2bbc 0c89 88bc 3f4c 8f3b d6f1 363d
000000d0: 510d 0f3d 5a37 0cbd 6b53 71bd 65c4 073b
000000e0: 1fd5 e83c 3dd6 42b8 1180 d33c 039a b03d
000000f0: 5992 4ebc fe7a 7dbc 20ad b7bc 20ad 57bc
00000100: fa98 743d 8f78 2bbd 83bd 42be 2b0e 8b3d
00000110: 9372 da3d 80dc ae3c 49a5 333e 3d9b d93c
00000120: ead1 4fbd fe7f e4bc 411d 413d 238f acbc
00000130: a2b4 febb 7031 943b 79c1 62bc 4f7a a9bd
00000140: d723 f5bc b2f9 183d 03d4 9639 7d8f a43d
00000150: 085f d5ba c48c ad3b f4cb e63b 11b5 97bd
00000160: 634c 4d3d 4ed2 98bc d4f7 bb3d 35f4 51bd
00000170: 6b73 2dbc 7cfb afbd 3be5 79bd 77c7 8bbd
00000180: fdc0 e1bd ac4e a23c 60d6 34bd e287 023c
00000190: 76f9 203d d579 22bd 2bd6 44bd 5481 073d
000001a0: 06b4 d8bc dd99 af3b f44d 003d 0299 3a3c
000001b0: f5b0 a8bd 10c3 7d3d e3b8 5fbd cba5 a73d
000001c0: c097 7b3c 20df 783d 4524 9abd f9bd 3ebd
000001d0: a0f6 1bbc 246c 8bbd 1a10 4abd a48d b53c
000001e0: 5a02 d9bc ecd9 c33c 5c74 623c 6f45 92bd
000001f0: 2f1f 933d dd0f e93c 9c44 043d 6ded d7bd
00000200: ca17 59bc 07a7 aebc 6d37 5ebd 118f 8a3d
00000210: 6bf4 3a3c 32bc 313c fd7b fa3c ed01 87bb
00000220: a9c5 e6bc 821f 23bc e805 523d 5fc7 6bbb
00000230: bd53 b3bd 2b89 993d 2a50 3fbc 229c 64bb
00000240: d02f d9bc 7639 b83d 6410 7ebd c3ca 033d
00000250: 116e 02bc 743f 64bd 77a0 a2bc fab3 4dbc
00000260: 5b11 083d 613b 13bd cf0d 643d 25cb bbbd
00000270: 3c7e 313c 30eb 543d ecff f7bb cb7b bebc
00000280: 7f91 e0bd fae9 3bbd 3dd4 423c b13b cfbd
00000290: 201f 0f3c eda9 a43d 3490 41bc 1c57 1e3d
000002a0: 0180 32bc 17eb 9cbd 04ac 6f3d 4e97 d93a
000002b0: 7aaa 7ebb e96f 013d 82a0 4b3d 4117 ae3b
000002c0: 5c6c 84bd 8595 693d 400f 49bc ab4d bcbd
000002d0: 9cd6 cd3c 34eb 963d d57b ca3d 2679 09bd
000002e0: fea6 653c b02c 383d 8c7f 83bc 58a6 953d
000002f0: 8a6b 2d3d 4e16 16bd c37b 76bd 8c41 823c
00000300: aa7c 053b 790e cdbc 05b8 733d d914 f93d
00000310: ac29 4e3d 0d39 803c 1705 62bd 5c81 6f3c
00000320: afce 62bd 98ae 773c a498 723d d1c2 8a3d
00000330: a2e6 ebbc aa51 bc3c 2548 80bc 62aa a23b
00000340: 3780 2abd e914 7ebd 38b0 89bd 3d03 88bd
00000350: dd2b a23c 1d06 8c3c d310 9ebd 06d3 d93a
00000360: 5254 7abd 9ba7 aebd 8850 87bc eb77 073c
00000370: ae78 373b f972 203d cea8 db3c 0944 99bd
00000380: 28e5 ec3b 7c4d 1e3e c132 86bc e830 813c
00000390: f2f5 4c3d 9f05 403d b009 24bd 7f39 383d
000003a0: 27e9 803c 00f8 97bb c597 a6bc dd14 c238
000003b0: 72db 67bd 57c7 f73d ca1c 903c 309f 68bd
000003c0: 4742 bc3c 7713 b4bc b017 52bd a1f4 efbd
000003d0: 425e ba3c f420 7cb8 3407 3cbc 5cfe c7bc
000003e0: 26f2 79bc 5e2d 38bd 2081 5a3d 525c 5ebd
000003f0: f382 93bd e00c c43b 3049 37bc b211 02be

cls.0.bias f4 [256]
0.036314406 0.09192537 -0.026116837 0.06018653 0.014472221 -0.08688239 0.00021011404 0.033046454
0.02663082 0.059709433 0.07289939 0.025288144 0.021411302 0.035899624 -0.040626854 0.026842136
0.089980125 0.09048474 -0.08510726 -0.07436348 0.0011822272 -0.06929409 0.040709645 -0.10718162
-0.014392621 0.023354616 -0.01545682 -0.063242994 -0.0018827373 -0.013102859 0.055061262 -0.029134039
0.113115296 0.022196962 0.07616911 -0.08559537 -0.073180676 0.08610008 -0.015610079 0.10435979
-0.06702233 -0.11321837 0.031142866 0.04336437 -0.028538605 -0.09725959 0.005181152 0.06696108
-0.08247383 0.16177289 -0.039424144 -0.04950097 -0.058233257 0.10665798 0.065459795 0.0010979308
0.021318648 -0.074113704 -0.01892826 -0.059823625 0.04127473 -0.15013103 0.09190731 -0.036603224
-0.1457959 0.04518411 0.042879783 -0.0041281525 0.1200045 0.06438148 0.07321027 0.004523102
0.0025088661 -0.023088906 0.10871647 0.12693854 0.12645262 0.03356754 -0.048780937 0.12101157
0.08490634 -0.102730595 -0.06452925 -0.009080751 0.047829416 0.009884617 -0.09046153 0.038017355
-0.025573768 0.026351657 0.041176345 0.037192512 -0.07492408 -0.12895773 0.066256434 0.07201806
-0.0492605 0.04847866 -0.00781372 0.046047352 -0.0662788 0.00556245 0.007933192 0.037600137
-0.0599695 0.09323667 -0.079275854 0.004652258 0.0045282785 -0.120144896 0.0816015 0.065703
-0.040472142 -0.09704709 -0.029969791 -0.01752929 0.02163631 -0.005518809 0.016385352 0.02856603
-0.11595884 -0.005992782 -0.009377806 0.031430107 -0.045048892 -0.06277025 0.14427638 -0.13236386
0.04309616 0.13649288 -0.06262896 0.066925704 -0.04777145 0.06817316 -0.0856438 -0.003033764
0.112850845 -0.026798405 -0.01030063 -0.036512345 -0.15688075 0.20809327 0.071900025 0.011262802
0.045982268 -0.0897996 -0.020022292 -0.049973536 -0.03182028 0.1399818 -0.07178597 0.13826658
-0.13822794 -0.020656431 -0.020132573 0.039725658 0.05851268 -0.039566718 0.003619009 -0.021710927
0.07954036 0.13156141 0.13234288 -0.11783953 -0.034425735 0.13948126 -0.07214431 -0.034261286
-0.06371415 -0.0038768908 0.040733296 -0.09103638 -0.0013517651 0.002948183 0.11702179 0.052261136
-0.04625149 -0.06546144 0.038525958 0.017840445 -0.038223244 0.09692389 -0.14895706 -0.05748775
0.02541779 -0.0070216903 0.029122436 -0.056559164 -0.11166707 0.07299387 0.11537928 0.013390249
-0.04925988 -0.030884221 0.020323232 0.054754198 0.14941809 0.11624466 0.118408024 -0.0526071
0.13328779 -0.011358377 0.017990759 -0.08888434 -0.04214 -0.018703943 0.0863103 0.011302949
0.083439864 0.032136694 0.06710615 -0.033768427 0.029867075 -0.09316661 -0.11532601 -0.04645553
0.02348433 -0.046701226 0.08555766 -0.1009829 -0.064706 0.08543999 -0.040974505 0.07641675
0.037592743 -0.08258553 0.025588106 0.07497682 0.079441875 0.09078333 0.03249737 -0.010951896
0.08829703 0.03273732 -0.0781416 0.15634243 -0.09116089 0.14952786 0.025021551 0.02575965
0.06081921 0.019485151 -0.11934681 -0.0029286605 0.05325601 0.04084827 0.050890125 -0.021009859
-0.108452365 0.04623448 -0.05998519 -0.013781663 0.10644378 0.1379083 -0.0010891199 0.09934074
00000000: 6abe 143d 5e43 bc3d faf2 d5bc 2786 763d
00000010: e51c 6d3c 65ef b1bd 0f52 5c39 b85b 073d
00000020: e128 da3c e191 743d 464c 953d 1529 cf3c
00000030: c166 af3c 7c0b 133d 5868 26bd 0ae4 db3c
00000040: 8047 b83d 1050 b93d b74c aebd e14b 98bd
00000050: f6f4 9a3a 0fea 8dbd 28bf 263d 0a82 dbbd
00000060: 07cf 6bbc 2e52 bf3c 9a3e 7dbc 8b85 81bd
00000070: 2ec6 f6ba 60ad 56bc eb87 613d 82aa eebc
00000080: fea8 e73d 67d6 b53c 8dfe 9b3d a04c afbd
00000090: c0df 95bd 3d55 b03d 6bc1 7fbc 96ba d53d
000000a0: 0143 89bd 08df e7bd 531f ff3c d69e 313d
000000b0: cbc9 e9bc 0930 c7bd a7c6 a93b e422 893d
000000c0: 0ae8 a8bd cba7 253e 367b 21bd 87c1 4abd
000000d0: ff85 6ebd 806f da3d c90f 863d 72e8 8f3a
000000e0: 72a4 ae3c edc8 97bd 700f 9bbc 9e09 75bd
000000f0: b10f 293d f3bb 19be e639 bc3d 43ed 15bd
00000100: 854b 15be f912 393d b6a2 2f3d 7445 87bb
00000110: ebc4 f53d 70da 833d 44ef 953d 8836 943b
00000120: ca6b 243b f224 bdbc bea6 de3d 2dfc 013e
00000130: cc7c 013e 1e7e 093d 85ce 47bd ead4 f73d
00000140: 60e3 ad3d 6b64 d2bd e927 84bd 6ec7 14bc
00000150: c7e8 433d 17f3 213c e543 b9bd 16b8 1b3d
00000160: 1480 d1bc 6edf d73c 87a8 283d 2d57 183d
00000170: cc71 99bd 7f0d 04be 74b1 873d 347e 933d
00000180: 61c5 49bd 8f91 463d 1e05 00bc 269c 3c3d
00000190: 2ebd 87bd 3645 b63b 38fa 013c 9a02 1a3d
000001a0: 94a2 75bd def2 be3d 615b a2bd f871 983b
000001b0: f461 943b 870e f6bd b01e a73d 4b8f 863d
000001c0: 1ec6 25bd a0c0 c6bd 3583 f5bc 9699 8fbc
000001d0: a13e b13c 20d7 b4bb 933a 863c 4f03 ea3c
000001e0: d47b edbd 195f c4bb 5fa5 19bc dbbc 003d
000001f0: 3085 38bd b08d 80bd 30bd 133e 648a 07be
00000200: 9985 303d cac4 0b3e 9d43 80bd 5810 893d
00000210: ffab 43bd 5f9e 8b3d 0466 afbd 1dd2 46bb
00000220: 581e e73d 5488 dbbc f9c3 28bc f88d 15bd
00000230: 59a5 20be 6716 553e 5240 933d 9e87 383c
00000240: e757 3c3d dae8 b7bd ca05 a4bc 0db1 4cbd
00000250: fb55 02bd 6457 0f3e 8604 93bd c195 0d3e
00000260: a08b 0dbe ad37 a9bc 11ed a4bc 5fb7 223d
00000270: feaa 6f3d b610 22bd e52c 6d3b 1ddb b1bc
00000280: 0ee6 a23d 09b8 063e e484 073e da55 f1bd
00000290: 0002 0dbd 2dd4 0e3e 65c0 93bd 9055 0cbd
000002a0: 907c 82bd 6f13 7ebb f5d7 263d 4871 babd
000002b0: b62d b1ba 4e36 413b 1fa9 ef3d c60f 563d
000002c0: 3472 3dbd a610 86bd 65cd 1d3d 2026 923c
000002d0: fa8f 1cbd 0880 c63d 3388 18be 4678 6bbd
000002e0: f838 d03c 3516 e6bb 2d92 ee3c 95aa 67bd
000002f0: b4b1 e4bd cf7d 953d f94b ec3d c662 5b3c
00000300: bac4 49bd e800 fdbc e87c a63c f045 603d
00000310: 0e01 193e ae11 ee3d e87f f23d 8b7a 57bd
00000320: 987c 083e 7c18 3abc 5b61 933c fe08 b6bd
00000330: fe9a 2cbd 0339 99bc 74c3 b03d 0130 393c
00000340: 85e2 aa3d c4a1 033d f36e 893d c350 0abd
00000350: ccab f43c 23ce bebd 0b30 ecbd 2748 3ebd
00000360: 3662 c03c c949 3fbd db38 af3d 1fd0 cebd
00000370: 9484 84bd 29fb ae3d e2d4 27bd 6380 9c3d
00000380: d9fa 193d 9a22 a9bd 269e d13c 728d 993d
00000390: 6cb2 a23d 9cec b93d f61b 053d 956f 33bc
000003a0: 13d5 b43d 9117 063d b408 a0bd 3b18 203e
000003b0: 90b2 babd d51d 193e fff9 cc3c e705 d33c
000003c0: 901d 793d 539f 9f3c 1a6c f4bd c5ee 3fbb
000003d0: f922 5a3d 8450 273d 2a72 503d de1c acbc
000003e0: 461c debd 5e60 3d3d 08b3 75bd 7ccc 61bc
000003f0: 32ff d93d d537 0d3e cdc0 8eba 2873 cb3d

cls.3.weight f4 [128, 256]
0.015171413 -0.12630649 -0.08064281 -0.14179423 0.03174898 0.02256565 -0.07921717 0.009755907
0.0113047995 0.07108694 -0.045990188 0.009435297 -0.035840064 -0.029407071 0.1596906 0.052228104
-0.08286334 -0.07606397 0.030041112 -0.0058213715 0.041626602 0.0028061757 -0.07612146 0.0585066
-0.0344714 -0.073386535 -0.0137042375 -0.014636827 0.011848097 -0.02396918 0.027947668 0.020700833
-0.0271504 -0.0042069233 -0.03773596 0.027120465 -0.020979634 0.04958025 -0.04587817 0.02095339
0.10432809 0.06546712 -0.011424831 0.07092935 0.056328706 0.10066958 -0.050636265 0.046558246
0.027902538 -0.06146078 -0.032397114 0.036497243 0.06605886 -0.024324032 -0.018565293 0.034222215
-0.07395025 0.04126028 -0.007748342 0.09509782 -0.057433248 0.1303862 -0.029756092 0.0055821524
0.03806419 -0.04792496 -0.013870649 -0.025158057 -0.07912799 -0.104747854 -0.21591997 0.038283132
0.058206428 -0.042779326 -0.08047408 0.035411313 -0.029298265 0.06070574 0.0399184 -0.101172864
-0.072095826 0.026540954 -0.005643776 -0.0077195945 -0.05785095 -0.040863775 -0.023935342 0.040359464
0.06996328 -0.09303595 -0.07887457 -0.016372578 0.05255546 0.058624487 -0.073239595 -0.080563866
-0.008788833 -0.025157431 -0.012627339 -0.08171467 0.004278808 0.101282366 -0.010583311 -0.11630915
0.064839065 -0.09969184 0.07327537 -0.03735833 -0.009030115 -0.059238873 -0.044259973 0.045431145
0.062123086 0.08098515 0.07515888 -0.0065599084 0.035562173 -0.0056074453 0.047435742 -0.048281197
0.011507935 -0.022369402 0.04306001 -0.012627018 0.09180006 -0.05727857 -0.08216336 -0.047354862
0.072322614 -0.0409485 0.07854384 -0.04131067 0.13542862 -0.084331505 0.13884382 -0.04677637
-0.010588829 0.038433183 -0.059757337 -0.08549582 0.095263444 -0.0013609057 -0.106983915 0.07861217
-0.010824615 0.15839832 0.0064467466 0.040607717 0.011093696 -0.08330962 -0.04682317 0.009871609
-0.033864956 -0.001629143 0.0266739 -0.008487194 0.016132278 -0.0229841 0.08694194 0.01698783
-0.0659032 -0.004125815 -0.14165144 0.053053476 0.1147948 -0.100466125 0.08100915 -0.053658884
0.033947036 0.06579313 0.06725431 0.07648164 -0.103623964 0.009648072 0.023750657 -0.10499036
0.03312102 0.09613668 -0.07385543 0.019664153 -0.025385734 -0.09390097 0.092705615 0.08558476
0.033498656 -0.07501992 -0.00075346325 0.087021865 -0.046258423 -0.061125226 0.0188216 -0.08924362
0.0631245 0.093071826 0.050204035 -0.019349638 -0.060756605 -0.14226188 -0.09190957 0.029452905
-0.10909869 0.005251796 -0.0021167912 0.12485842 0.0011110738 -0.11365769 0.009230471 0.0012148053
-0.06582979 -0.108116366 0.00968686 0.087777436 -0.044954978 -0.0029059146 0.038097918 -0.007956829
-0.015483367 0.046657186 -0.0643242 0.054452773 -0.03659495 -0.05922305 0.009434106 -0.012823085
-0.012765082 -0.016132087 0.04573049 -0.048203994 0.023492323 -0.05829182 -0.008485705 -0.05060035
-0.00958839 0.10708696 0.06920708 0.026712406 0.017538283 0.08134572 0.04634663 0.049141783
-0.05052621 -0.008869306 0.01703021 -0.021223255 -0.13693613 -0.07622743 -0.11804738 0.03498824
-0.047047205 -0.023450458 -0.06261145 -0.011533234 -0.015327327 -0.09481369 -0.10313339 0.003026652
00000000: 8591 783c 7d56 01be 0f28 a5bd 8232 11be
00000010: 380b 023d 99db b83c 9d3c a2bd 3dd7 1f3c
00000020: c437 393c 0896 913d 3560 3cbd 8196 1a3c
00000030: 08cd 12bd 19e7 f0bc ef85 233e 23ed 553d
00000040: 41b4 a9bd 6dc7 9bbd c718 f63c 34c1 bebb
00000050: a880 2a3d d1e7 373b 91e5 9bbd 9ea4 6f3d
00000060: e231 0dbd ae4b 96bd bd87 60bc 4dcf 6fbc
00000070: 851e 423c 045b c4bc 82f2 e43c cb94 a93c
00000080: 846a debc 3bda 89bb 0691 1abd bd2b de3c
00000090: 7bdd abbc a914 4b3d bfea 3bbd 72a6 ab3c
000000a0: f7a9 d53d a013 863d 372f 3bbc 6843 913d
000000b0: eeb8 663d da2b ce3d f967 4fbd dcb3 3e3d
000000c0: dd93 e43c 4dbe 7bbd d6b2 04bd 227e 153d
000000d0: de49 873d 3143 c7bc 3e16 98bc 982c 0c3d
000000e0: 3b73 97bd 8a00 293d cee5 fdbb a5c2 c23d
000000f0: 203f 6bbd f683 053e 0cc3 f3bc 7dea b63b
00000100: 32e9 1b3d f64c 44bd b841 63bc 4518 cebc
00000110: db0d a2bd 0b86 d6bd 201a 5dbe c6ce 1c3d
00000120: dd69 6e3d 6039 2fbd 98cf a4bd 740b 113d
00000130: ea02 f0bc 95a6 783d 7a81 233d b833 cfbd
00000140: faa6 93bd 6a6c d93c 6def b8bb a7f4 fcbb
00000150: 1ef5 6cbd c660 27bd 0d14 c4bc f74f 253d
00000160: e848 8f3d a289 bebd fe88 a1bd c91f 86bc
00000170: 6544 573d 3b20 703d a4fe 95bd abfe a4bd
00000180: 0aff 0fbc f516 cebc e6e2 4ebc 055a a7bd
00000190: 3e35 8c3b 216d cf3d a065 2dbc 7e33 eebd
000001a0: 58ca 843d 3c2b ccbd 6611 963d 0c05 19bd
000001b0: 0cf3 13bc 76a4 72bd f249 35bd 0216 3a3d
000001c0: c774 7e3d 8bdb a53d e6ec 993d 80f4 d6bb
000001d0: a4a9 113d a9be b7bb fb4b 423d 81c2 45bd
000001e0: c78b 3c3c 0940 b7bc b15f 303d 8de1 4ebc
000001f0: ab01 bc3d ef9c 6abd 4445 a8bd 2cf7 41bd
00000200: e11d 943d 9db9 27bd 98db a03d 6135 29bd
00000210: cdad 0a3e ffb5 acbd 132d 0e3e 9498 3fbd
00000220: c57c 2dbc 1d6c 1d3d 1cc4 74bd 6f18 afbd
00000230: 7b19 c33d 6b60 b2ba 621a dbbd 6bff a03d
00000240: ba59 31bc 2b33 223e 3b3f d33b 4754 263d
00000250: 55c2 353c 3c9e aabd a7c9 3fbd 87bc 213c
00000260: fbb5 0abd f888 d5ba 3983 da3c df0d 0bbc
00000270: d727 843c 2749 bcbc 9e0e b23d 102a 8b3c
00000280: 42f8 86bd d831 87bb 130d 11be 9a4e 593d
00000290: 8919 eb3d 2fc1 cdbd 20e8 a53d 6bc9 5bbd
000002a0: 0c0c 0b3d 8cbe 863d a1bc 893d 68a2 9c3d
000002b0: cd38 d4bd f212 1e3c bd90 c23c 3005 d7bd
000002c0: e8a9 073d 4fe3 c43d 8441 97bd b816 a13c
000002d0: bef5 cfbc 274f c0bd 71dc bd3d 1047 af3d
000002e0: e335 093d 0ba4 99bd 1084 45ba 8538 b23d
000002f0: 7979 3dbd 725e 7abd c22f 9a3c 5cc5 b6bd
00000300: 6b47 813d 719c be3d bfa2 4d3d 2283 9ebc
00000310: ebdb 78bd 19ad 11be 163b bcbd 3847 f13c
00000320: 226f dfbd 4217 ac3b ddb9 0abb c5b5 ff3d
00000330: 73a1 913a 5dc5 e8bd 673b 173c 1a3a 9f3a
00000340: c5d1 86bd 1d6c ddbd a3b5 1e3c a8c4 b33d
00000350: b622 38bd 2871 3ebb 900c 1c3d 5c5d 02bc
00000360: f3ad 7dbc 9b1b 3f3d 68bc 83bd df09 5f3d
00000370: 96e4 15bd de93 72bd 8291 1a3c eb17 52bc
00000380: a224 51bc 7027 84bc e54f 3b3d 8d71 45bd
00000390: f972 c03c 67c3 6ebd a007 0bbc 5042 4fbd
000003a0: 9f18 1dbc 6850 db3d 71bc 8d3d fad3 da3c
000003b0: 72ac 8f3c 9698 a63d f7d5 3d3d e548 493d
000003c0: 92f4 4ebd 9150 11bc f082 8b3c 64dc adbc
000003d0: fc38 0cbe 201d 9cbd d3c2 f1bd d44f 0f3d
000003e0: 92b4 40bd 2d1b c0bc 6f3a 80bd e4f5 3cbc
000003f0: 781f 7bbc ae2d c2bd 9937 d3bd cb5a 463b

cls.3.bias f4 [128]
-0.09818534 0.014251771 0.035352584 0.14635772 -0.10579356 -0.00929609 0.11811241 0.110623516
-0.069223285 -0.01801696 -0.043896675 -0.0035801195 -0.14638563 -0.020734746 0.030080657 -0.0672672
-0.06847794 0.028663382 -0.06863751 -0.07089441 0.026394513 -0.02628447 -0.12355436 0.11013707
0.00587729 0.06440266 -0.08856129 0.07770389 -0.041842468 0.011108632 -0.08862867 -0.06750604
0.02513632 0.042446125 -0.031192055 0.1271441 0.032425184 0.04733398 0.06794188 -0.08136837
0.09641555 0.16368863 -0.08062682 0.06619114 0.017535463 -0.02369134 0.08714842 0.019488921
-0.044190142 0.016075326 -0.10482919 0.1010889 -0.0118798185 0.08798137 0.024051428 0.10202724
-0.034243584 -0.032538757 -0.009868487 0.047003757 0.0451598 -0.11368088 -0.11787899 0.06275687
0.07292998 -0.0005689929 -0.109650224 -0.06406099 -0.09521004 0.018827112 0.07124127 0.047233574
0.1201923 0.06698131 0.10120074 0.0056503387 0.007523953 0.08447444 0.078353114 0.048979722
0.1225079 -0.17343237 -0.011336133 -0.021490628 0.07881738 0.12399603 0.040962975 -0.05319555
-0.06496874 -0.015072878 -0.0030878626 -0.06652417 -0.036197755 0.15837732 -0.111697614 -0.011903522
-0.1339217 0.044189177 0.040123437 -0.010466455 -0.0062855612 -0.01620468 -0.13312496 0.059979644
-0.014246203 0.13106126 0.07404177 0.09579283 -0.0038437208 0.009851913 0.058088142 0.0612927
0.15495837 -0.0049497527 0.07978481 -0.12103458 -0.096097045 -0.10274786 -0.021277646 -0.011439129
-0.06433616 -0.07276544 -0.015396607 -0.09497488 -0.013353883 -0.06650782 -0.122670956 0.009131425
00000000: 6515 c9bd 4380 693c dfcd 103d ccde 153e
00000010: 4baa d8bd a14e 18bc ebe4 f13d 958e e23d
00000020: f0c4 8dbd 4e98 93bc 00cd 33bd 70a0 6abb
00000030: 1de6 15be eadb a9bc b66b f63c 63c3 89bd
00000040: 2a3e 8cbd 78cf ea3c d391 8cbd 1731 91bd
00000050: 4e39 d83c 8752 d7bc 110a fdbd 8b8f e13d
00000060: 4896 c03b 8be5 833d 9f5f b5bd 3823 9f3d
00000070: 0263 2bbd fb00 363c f382 b5bd 9b40 8abd
00000080: afea cd3c fddb 2d3d 7b86 ffbc 1032 023e
00000090: 45d0 043d 47e1 413d 1d25 8b3d 76a4 a6bd
000000a0: 8475 c53d fe9d 273e ad1f a5bd 388f 873d
000000b0: 88a6 8f3c 5714 c2bc df7a b23d 3ba7 9f3c
000000c0: b900 35bd 67b0 833c b0b0 d6bd b207 cf3d
000000d0: 92a3 42bc 942f b43d 8007 c53c a8f3 d03d
000000e0: 0043 0cbd 5c47 05bd 6faf 21bc 0387 403d
000000f0: 7cf9 383d 85d1 e8bd 8a6a f1bd ad86 803d
00000100: 505c 953d 7828 15ba 4c90 e0bd 6932 83bd
00000110: 7bfd c2bd 513b 9a3c f1e6 913d fe77 413d
00000120: 6127 f63d 7f2d 893d 5542 cf3d 7a26 b93b
00000130: 7e8b f63b ef00 ad3d 9977 a03d f69e 483d
00000140: 6ce5 fa3d 4198 31be 30bb 39bc 1d0d b0bc
00000150: 026b a13d a1f1 fd3d cbc8 273d 94e3 59bd
00000160: 550e 85bd 3cf4 76bc bd5d 4abb d33d 88bd
00000170: 1944 14bd aa2d 223e b8c1 e4bd fd06 43bc
00000180: c522 09be b6ff 343d 7958 243d 7e7b 2bbc
00000190: 1cf7 cdbb adbf 84bc e951 08be 37ad 753d
000001a0: e868 69bc ec34 063e 36a3 973d 082f c43d
000001b0: efe6 7bbb eb69 213c d5ed 6d3d 0e0e 7b3d
000001c0: 68ad 1e3e 8931 a2bb 3866 a33d fae0 f7bd
000001d0: 87ce c4bd 786d d2bd 754e aebc 2f6b 3bbc
000001e0: adc2 83bd 0c06 95bd 0d42 7cbc 3182 c2bd
000001f0: 3fca 5abc 4035 88bd e93a fbbd f99b 153c

cls.6.weight f4 [64, 128]
-0.024300415 -0.0010870738 -0.016853036 -0.045135263 -0.12326519 -0.013145796 -0.0073869596 -0.05919771
0.09430149 -0.0143514825 -0.095160306 0.19714203 0.098460555 -0.08226789 -0.029374273 0.111785494
-0.12486653 0.07459899 0.14010526 0.050723493 0.039430484 0.021004394 -0.022022706 -0.009170336
-0.035628296 -0.053262886 -0.04237116 -0.030364683 0.10012418 0.04834158 0.07337127 0.044293303
-0.04464735 0.098887846 0.01430486 -0.06100538 -0.0026402057 -0.1350089 -0.16668785 0.09676354
-0.038717195 -0.09139999 -0.062403105 -0.0019543332 0.039386787 -0.047423884 -0.03153726 -0.01195838
-0.038241915 0.034098882 0.028252807 -0.00015308175 -0.004735156 -0.110334195 0.037987355 -0.079985015
0.11665351 -0.070676416 -0.025438685 -0.11870935 -0.0781789 -0.044276763 0.104687214 -0.03193761
-0.023658307 -0.068125516 -0.030606339 -0.060561694 -0.012892039 0.13073452 -0.0367842 0.012381458
-0.11466099 -0.033678923 -0.10992131 -0.032517154 0.06130887 -0.14589694 -0.0650761 -0.15108621
-0.04782771 0.043686416 0.020355308 0.06410229 -0.09730356 -0.1091873 -0.017988171 -0.06841602
0.29742438 -0.012913345 0.12580618 0.08851442 -0.024881123 -0.028980417 0.014724461 -0.100102864
0.057153042 -0.089504614 -0.013396157 0.09182596 -0.046687678 -0.1321787 0.039144915 -0.009726987
-0.072470084 -0.07455722 0.028961845 0.06656107 0.011001667 0.1337628 0.045154862 0.036227785
-0.15997288 0.15662958 -0.12014232 -0.036962688 -0.049939334 0.003021658 0.0046979464 0.14753824
0.06368545 -0.02553864 0.022845382 0.06729281 0.08061325 0.15229057 0.033297554 0.10219469
0.041434366 -0.089251384 -0.053026736 0.032876242 -0.0584772 0.044743005 -0.108734295 0.06021849
-0.074013755 -0.122159295 0.052237082 -0.03345631 0.033768665 -0.0519906 -0.043976642 0.11214503
-0.051863894 0.023231931 -0.057524715 0.035749383 -0.07126908 0.036705576 -0.05372839 -0.027166719
-0.023635417 -0.09503504 -0.07929264 0.14412943 -0.052122585 0.02701878 0.004262658 -0.045312405
0.042924996 0.051551666 0.12616897 0.039398894 0.060233653 -0.08009913 -0.17681499 -0.054237083
0.06458927 0.008364132 -0.0047173533 -0.039468788 0.026787778 -0.081694625 -0.03759206 0.027339257
0.0465264 -0.09059303 0.104078524 -0.14174177 -0.13537045 -0.088825844 -0.09754515 0.0053562615
0.013671502 -0.077665895 -0.06876542 -0.072473235 -0.17189896 0.072663985 -0.03575637 -0.020039942
-0.054352753 -0.0874925 -0.056329504 0.037380446 0.04278691 -0.15551774 -0.03847282 -0.10184848
-0.043359667 -0.06688825 -0.062011946 -0.03949508 0.04729385 0.08042518 -0.028038634 -0.13531795
0.0663208 0.10517142 0.005897752 -0.09721352 -0.041304883 -0.015319563 0.02474207 0.002957158
0.1886135 0.05508931 0.028525405 0.08107041 0.10660666 0.017243518 0.040468343 -0.06172939
-0.023779394 0.04635641 -0.054000862 0.07034688 0.05215662 -0.06281902 0.06586788 -0.06268144
-0.034919024 -0.109601215 -0.011684823 0.016186092 -0.039310828 0.103729725 0.061417047 0.03948573
-0.1317923 0.16104645 0.020217774 0.02805433 0.10440537 -0.0070599304 -0.012954048 0.0125278495
-0.029019522 0.08830341 -0.012081511 0.0781297 0.021996086 -0.099504724 0.044101972 0.089967854
00000000: aa11 c7bc 257c 8eba 610f 8abc c1df 38bd
00000010: 7672 fcbd 7761 57bc 4f0e f2bb 4c79 72bd
00000020: 2421 c13d 7b22 6bbc 68e3 c2bd 9adf 493e
00000030: b0a5 c93d 117c a8bd 51a2 f0bc cbef e43d
00000040: 06ba ffbd 5bc7 983d c177 0f3e 70c3 4f3d
00000050: dc81 213d 6811 ac3c f668 b4bc 2d3f 16bc
00000060: faee 11bd 2f2a 5abd 628d 2dbd 5bbf f8bc
00000070: e80d cd3d d201 463d ad43 963d e56c 353d
00000080: 24e0 36bd b685 ca3d ee5e 6a3c c7e0 79bd
00000090: 4d07 2dbb c63f 0abe 38b0 2abe f62b c63d
000000a0: ec95 1ebd eb2f bbbd 669a 7fbd 4514 00bb
000000b0: 0a54 213d 8c3f 42bd 372d 01bd 15ed 43bc
000000c0: 8ea3 1cbd 45ab 0b3d 6e72 e73c 9284 20b9
000000d0: 5e29 9bbb e5f6 e1bd a198 1b3d 2fcf a3bd
000000e0: 09e8 ee3d ccbe 90bd ca64 d0bc e31d f3bd
000000f0: 421c a0bd 8d5b 35bd 4066 d63d 03d1 02bd
00000100: 11cf c1bc 6485 8bbd 25ba fabc 8a0f 78bd
00000110: 2139 53bc 45df 053e 08ab 16bd 99db 4a3c
00000120: 62d3 eabd e9f2 09bd 6c1e e1bd b530 05bd
00000130: 021f 7b3d 0266 15be 9e46 85bd 58b6 1abe
00000140: fde6 43bd 87f0 323d 2dc0 a63c 1048 833d
00000150: 1747 c7bd 979d dfbd ee5b 93bc b31d 8cbd
00000160: 0248 983e 7f92 53bc 56d3 003e 0c47 b53d
00000170: 7fd3 cbbc 5768 edbc de3e 713c bb02 cdbd
00000180: 4f19 6a3d 324e b7bd 8e7b 5bbc 400f bc3d
00000190: 943b 3fbd da59 07be 6b56 203d f15d 1fbc
000001a0: 326b 94bd 75b1 98bd 6441 ed3c 2c51 883d
000001b0: 5640 343c 1ef9 083e 4ef4 383d 9663 143d
000001c0: eecf 23be 8163 203e 2d0d f6bd 3066 17bd
000001d0: 308d 4cbd 0207 463b 3bf1 993b 4414 173e
000001e0: 846d 823d 6936 d1bc 3d26 bb3c d0d0 893d
000001f0: 8f18 a53d 0ff2 1b3e 0463 083d 734b d13d
00000200: 15b7 293d 6ec9 b6bd 9032 59bd 3da9 063d
00000210: ca85 6fbd 7144 373d 16b0 debd aaa7 763d
00000220: 8694 97bd a72e fabd 8df6 553d 7c09 09bd
00000230: 0351 0a3d 18f4 54bd da20 34bd 4bac e53d
00000240: 3c6f 54bd e450 be3c 099f 6bbd f26d 123d
00000250: 86f5 91bd 9658 163d 4d12 5cbd bd8c debc
00000260: 109f c1bc bba1 c2bd 2e64 a2bd aa96 133e
00000270: 7e7e 55bd 7d56 dd3c c4ad 8b3b 8099 39bd
00000280: 1fd2 2f3d d727 533d 7032 013e bc60 213d
00000290: 90b7 763d 030b a4bd fd0e 35be b427 5ebd
000002a0: 6147 843d b609 093c 0794 9abb 06aa 21bd
000002b0: 0b72 db3c 834f a7bd 22fa 19bd 94f6 df3c
000002c0: 7792 3e3d d788 b9bd 1f27 d53d c124 11be
000002d0: 8d9e 0abe 53ea b5bd c0c5 c7bd 9483 af3b
000002e0: 6ffe 5f3c 4c0f 9fbd e2d4 8cbd d96c 94bd
000002f0: 4806 30be dbd0 943d 4575 12bd ce2a a4bc
00000300: fea0 5ebd 452f b3bd c4b9 66bd 3d1c 193d
00000310: 5441 2f3d 0b40 1fbe ad95 1dbd f095 d0bd
00000320: e899 31bd b5fc 88bd 3d00 7ebd 98c5 21bd
00000330: 32b7 413d f5b5 a43d 47b1 e5bc ca90 0abe
00000340: 33d3 873d 1d64 d73d ee41 c13b e217 c7bd
00000350: 4f2f 29bd e8fe 7abc e2af ca3c e1cc 413b
00000360: e623 413e 54a5 613d 1cae e93c 3e08 a63d
00000370: 9854 da3d 4742 8d3c 22c2 253d f5d7 7cbd
00000380: 01cd c2bc 38e0 3d3d 0230 5dbd 0612 903d
00000390: 2ea2 553d 42a7 80bd bde5 863d 205f 80bd
000003a0: 4007 0fbd 9a76 e0bd b371 3fbc b298 843c
000003b0: 6404 21bd 4070 d43d 7190 7b3d cabb 213d
000003c0: 90f4 06be 5ce9 243e bf9f a53c 32d2 e53c
000003d0: 7cd2 d53d fd56 e7bb 373d 54bc 9c41 4d3c
000003e0: 59ba edbc 6bd8 b43d 88f1 45bc 7702 a03d
000003f0: 2331 b43c 22c9 cbbd 45a4 343d 1141 b83d

cls.6.bias f4 [64]
0.038617056 -0.0046417424 0.0017745164 -0.008094327 -0.1543459 -0.070048116 -0.09109503 0.031699114
-0.124128275 0.06388698 0.0861789 -0.02604912 -0.059721492 0.23073842 -0.0130451685 0.09182919
0.012058227 0.07074104 0.104484186 -0.05053283 -0.025927078 -0.0778681 -0.008673815 0.14271891
0.09099836 -0.05110705 0.024161529 0.05346735 0.035727233 -0.026430044 0.03950711 -0.0044219815
-0.02064754 -0.08753616 -0.034373086 0.0013369095 -0.048031103 -0.028922759 0.025630513 0.10357429
-0.04021741 0.07497262 -0.11257028 0.11058353 -0.0057285023 -0.13539726 -0.061867975 -0.008701309
0.06984383 0.07554588 0.10570692 0.109039314 0.1283297 -0.034410805 0.042768072 -0.18429783
-0.20362607 -0.017388612 0.15068354 0.036641132 -0.012777811 0.05011248 0.06947268 -0.0323633
00000000: eb2c 1e3d c219 98bb e496 e83a 119e 04bc
00000010: da0c 1ebe 6375 8fbd 0890 babd eed6 013d
00000020: f736 febd 2dd7 823d 907e b03d f764 d5bc
00000030: 869e 74bd b146 6c3e 67bb 55bc f110 bc3d
00000040: df8f 453c aee0 903d cefb d53d 83fb 4ebd
00000050: 0665 d4bc 4f79 9fbd 9e1c 0ebc e824 123e
00000060: 595d ba3d a055 51bd 66ee c53c 9400 5b3d
00000070: b856 123d d283 d8bc 35d2 213d 45e6 90bb
00000080: 0825 a9bc 2946 b3bd cbca 0cbd 3d3b af3a
00000090: 43bc 44bd 6cef ecbc 15f7 d13c c21e d43d
000000a0: 03bb 24bd 3f8b 993d 3f8b e6bd 9e79 e23d
000000b0: 29b6 bbbb 94a5 0abe 4669 7dbd ef8f 0ebc
000000c0: 480a 8f3d ccb7 9a3d df7c d83d 0150 df3d
000000d0: dc68 033e 58f2 0cbd 932d 2f3d 92b8 3cbe
000000e0: 5a83 50be 9072 8ebc c94c 1a3e 0315 163d
000000f0: 065a 51bc be42 4d3d b147 8e3d 618f 04bd

cls.9.weight f4 [1, 64]
0.19910184 0.12433368 0.18548189 -0.1607216 0.12086138 0.16459876 0.1841335 0.18071659
0.18107489 0.20917311 -0.17959939 0.19406654 0.20663929 -0.12296512 -0.18121809 -0.16412987
-0.21182603 0.17911677 -0.21940844 0.15128201 -0.22087741 0.19762717 -0.2032555 -0.11930682
-0.188642 -0.17128699 -0.16685636 0.20675613 0.20438123 0.21597165 0.18148458 0.22897545
-0.15095562 0.19880173 0.16661537 -0.12831824 0.20552379 0.19346882 0.20817226 0.13834976
0.20716467 0.1572014 0.18660545 -0.16774653 0.19039376 0.11091028 -0.19903244 -0.1558899
-0.22844939 0.19124144 -0.19069879 -0.10622866 -0.13776764 0.1761529 -0.14573137 0.14571247
0.16215721 -0.17968252 -0.21236047 0.13079928 -0.14284116 0.13798952 -0.16554183 0.20345265
00000000: 5ae1 4b3e a8a2 fe3d f7ee 3d3e 3494 24be
00000010: 2c86 f73d 948c 283e 7e8d 3c3e c50d 393e
00000020: b26b 393e 7a31 563e e7e8 37be 61b9 463e
00000030: 4099 533e 23d5 fbbd 3c91 39be a911 28be
00000040: ece8 58be 636a 373e 9bac 60be ace9 1a3e
00000050: b02d 62be c75e 4a3e 3622 50be 2257 f4bd
00000060: 5e2b 41be db65 2fbe 65dc 2abe e1b7 533e
00000070: 5049 513e ac27 5d3e 18d7 393e 8a78 6a3e
00000080: 1c94 1abe ae92 4b3e 389d 2a3e db65 03be
00000090: d474 523e b11c 463e 1c2b 553e 8fab 0d3e
000000a0: fa22 543e 67f9 203e 8015 3f3e bfc5 2bbe
000000b0: 95f6 423e ee24 e33d 29cf 4bbe 9aa1 1fbe
000000c0: a3ee 69be ccd4 433e 8b46 43be 698e d9bd
000000d0: f612 0dbe 6d61 343e 9b3a 15be a635 153e
000000e0: 8a0c 263e b2fe 37be 0675 59be 3ff0 053e
000000f0: f444 12be 204d 0d3e cc83 29be e455 503e
