src/controllers/intersecions_with_avoidance/models/mlp_straight_100_3c.pth (torch, 955820 bytes, 7 tensors)

cls.0.weight f4 [256, 768]
000000 e9 f9 e4 bc d1 6a e1 bb 1b 16 cb 3c f2 06 1f 3d
       -0.027951198 -0.0068791886 0.024790814 0.038824983
000010 2e dd 01 bb e2 7e 67 bb 80 a9 72 bc 68 07 c3 3c
       -0.0019815671 -0.003532343 -0.01481092 0.023807243
000020 77 67 98 bc 11 72 a2 3c dd 13 06 bc db f8 98 3c
       -0.018604023 0.019829782 -0.008183447 0.018673351
000030 4e 90 e6 bb 49 28 1f 3c 61 9e 20 bc 51 7a 13 3d
       -0.0070362454 0.009714195 -0.0098033855 0.036005322
000040 c2 25 a6 bc 1e f0 06 bd 8e e2 6a bc 85 48 d9 3c
       -0.020281676 -0.032943837 -0.014336241 0.026523838
000050 6b 56 44 bc 0f 20 75 bc ef 92 ac bc c9 01 15 bc
       -0.011983494 -0.014961257 -0.021066157 -0.009094664
000060 e9 f7 c6 bb a3 1d b4 3c df b9 07 bd c6 f4 e6 bc
       -0.0060720337 0.021986788 -0.033136245 -0.028192889
000070 fe 6f 09 3d 39 de 34 3c 64 c7 c1 bc 0a 32 a7 bc
       0.03355407 0.01103931 -0.023654647 -0.020409603
000080 77 78 9b bb ff 3d e7 bb 19 8a c1 bc de 0d 0a bd
       -0.004744585 -0.007056951 -0.02362542 -0.03370463
000090 19 91 de bc d9 d3 ec 3b de 8a d0 b9 c8 21 b5 bc
       -0.027168797 0.0072274026 -0.00039776316 -0.022110835
0000a0 1d 82 0a bd 16 29 71 bb e1 16 6e bb da 82 70 3c
       -0.033815492 -0.003679817 -0.0036329555 0.014679635
0000b0 49 e7 fd 3a 90 c7 e5 3c ec 09 87 bc bd d3 91 bc
       0.0019371297 0.02804926 -0.016484223 -0.01780116
0000c0 12 37 26 3d f4 35 14 bc a6 55 1e b9 1b ec 94 3c
       0.040579863 -0.009046067 -0.00015099961 0.01817899
0000d0 8e b0 ba 3c 9d 93 c2 3c f3 5b 3a 3d be 8d 71 bc
       0.022789266 0.023752028 0.045497846 -0.014743267
0000e0 89 65 e4 3c e8 6f 65 3c 2c ba 2b 3d e7 01 05 bd
       0.027880447 0.014003731 0.041925594 -0.032472517
0000f0 05 55 d2 bc 34 90 9a bb e7 2a 98 3b b1 9e 25 3c
       -0.025675306 -0.0047168974 0.0046437862 0.010108636
000100 d2 7d a1 3c 8e 4e e6 3c cd 74 24 bb 42 ca fc 3b
       0.019713316 0.02811363 -0.0025094033 0.0077145407
000110 4a 92 19 3d 88 ff 85 3c a1 0c db 3c b2 b5 16 3d
       0.037493028 0.016357198 0.02673942 0.036794372
000120 d7 3d d9 3c 9d 7e 6c 3c fb a4 0e 3d c3 3e 63 3c
       0.026518745 0.014434484 0.034825306 0.013869944
000130 14 1f 0c bd 4f 77 57 bc f1 8c 15 bc 4b 34 d5 bc
       -0.034209326 -0.013151004 -0.009127841 -0.026025912
000140 a6 85 66 bc 68 35 f8 3c 1f a6 00 bd c5 7c 5e 3c
       -0.01406995 0.030298904 -0.031408425 0.013579552
000150 51 4c ef bb 9d 23 b5 bc 0a d1 14 bc c0 6b 10 bd
       -0.007302799 -0.022111708 -0.009083042 -0.03525901
000160 db a7 79 3c 7f 45 7d b9 d6 a8 fe 3b 13 33 2d 3b
       0.015237774 -0.0002415385 0.0077715917 0.0026428148
000170 a7 fa 1b 3c a1 85 a2 bc b8 1c 75 bc 4b 06 7e 3c
       0.009520209 -0.01983911 -0.01496046 0.01550443
000180 a0 7f b9 bc 95 31 39 3c b6 90 08 3d 8e 4f 14 3d
       -0.022643864 0.011303325 0.033341132 0.03620868
000190 bb 90 ff bb 21 d9 d6 bc 32 b4 9b bc b0 54 69 3c
       -0.0077992356 -0.026226582 -0.019006822 0.0142413825
0001a0 7f 24 f2 3c 43 e5 d3 3c a3 53 69 3c 6f c6 b6 3c
       0.029558418 0.025866156 0.014241132 0.022311417
0001b0 34 3e 0e bd 0f f6 ca b9 af 77 dc bc b1 14 3e 3c
       -0.03472729 -0.0003871177 -0.026912538 0.011601613
0001c0 20 98 7d 3c fa 76 a3 3c bc a6 af 3c 5d 4e ba 3c
       0.015478164 0.019954193 0.02144181 0.022742445
0001d0 c5 d1 02 bd a2 78 d1 3a d9 15 59 3c 84 1a 63 3c
       -0.031938333 0.0015981386 0.013249838 0.013861302
0001e0 0c 0a 01 3b ca 55 1c bd c0 86 d4 3b eb 5e 15 3d
       0.0019689826 -0.038167752 0.00648579 0.036467474
0001f0 45 a0 dd 3c 30 3c dc 3c 8d b1 82 bc d6 41 d3 3c
       0.027053962 0.026884168 -0.015953803 0.025788229
000200 ca 2a 1c bc 33 c3 17 bc f5 24 28 3a 36 82 7e bc
       -0.009531686 -0.009262848 0.00064141984 -0.015533974
000210 30 b7 94 3c a5 46 0e bd 6c c3 5f bc 1e 89 f4 bc
       0.018153757 -0.03473534 -0.013657432 -0.029850539
000220 54 e1 ad bc af e8 cc bb 23 06 a8 bc 8b 38 17 3c
       -0.021225609 -0.006253324 -0.020510739 0.0092297895
000230 e2 5e b5 3a 6e 20 c6 3b 92 e7 40 bc 54 3b 55 3c
       0.0013837481 0.0060463464 -0.011773961 0.013014633
000240 24 52 d3 bc ce eb 78 bc 53 c1 85 3c c6 eb 07 bd
       -0.025796004 -0.015192939 0.016327536 -0.033183835
000250 70 20 a8 3a 67 ea 63 3c ae d7 a1 3c c9 62 94 3c
       0.001282705 0.013910866 0.019756164 0.01811351
000260 cf bc b1 3b 4e d6 57 3a 12 a4 64 37 6f 0f c4 3c
       0.005424119 0.0008233533 1.362806e-05 0.02393314
000270 e5 7e 96 3c 1a 9d a5 3c c4 9c 6d bb 4a 55 dd 38
       0.018371055 0.020216513 -0.003625677 0.000105539875
000280 b9 5a 12 3c 0b 53 ac 3c d0 04 cd bc 6b 3e 09 bd
       0.008932763 0.021035692 -0.025026709 -0.033506792
000290 7a 27 7e bc 43 f3 ae bc 10 46 ef bc dc ae a6 bb
       -0.015512342 -0.02135623 -0.029208213 -0.005086763
0002a0 f4 2b 6e bc f4 7b a3 bc 26 e9 99 bc cc 2b 10 bb
       -0.014536846 -0.019956566 -0.018787932 -0.0021998761
0002b0 b7 3d 29 bd 7d 97 12 bc 35 31 ee 3c 5c 98 1d 3c
       -0.04131862 -0.00894725 0.029076198 0.009618845
0002c0 77 6f 13 3d 8c d7 6b bc 60 eb 1e 3d e5 53 80 bb
       0.035994973 -0.014394652 0.03879869 -0.003916251
0002d0 e5 48 b4 3c 16 fb 21 3c 79 da aa bc 53 29 9f 3b
       0.022007415 0.009886524 -0.020856129 0.004857221
0002e0 72 66 be bc 06 91 31 3d c7 62 93 3b d6 02 cf 3c
       -0.02324221 0.043351196 0.004497859 0.025269907
0002f0 0b 36 f4 3c f0 8f 07 bd 3c 27 a6 bc ae 02 e8 bc
       0.029810926 -0.033096254 -0.02028238 -0.02832159
000300 db 97 04 bc bf a0 84 3b 0e fb bc bb 2c fb 08 3d
       -0.008092846 0.0040474827 -0.0057672327 0.03344266
000310 4d 62 70 bc d2 9d 17 bd 6e 31 30 3c 59 a8 06 bd
       -0.014671874 -0.037015744 0.010753972 -0.032875393
000320 3f 31 bc bc 5d 89 16 3d 90 b5 da 3c 44 94 44 bc
       -0.022972701 0.036752094 0.026697904 -0.01199824
000330 79 a8 da bc 58 88 40 3c 36 3f 7e 3c 8f 45 c9 bc
       -0.026691662 0.011751257 0.015518 -0.024569301
000340 93 51 d8 bc 92 e1 e3 bc b1 60 04 3c 1d 27 43 bc
       -0.026406085 -0.027817521 0.008079694 -0.011911181
000350 69 c4 3d 3c 91 81 52 bb b1 2e c7 bb 20 f3 34 bb
       0.011582472 -0.0032120685 -0.006078564 -0.0027610734
000360 ff f3 12 bb 0b f1 24 bc c5 73 00 bd 3b d1 43 3c
       -0.0022423265 -0.010067235 -0.031360406 0.01195174
000370 52 0a 89 3c cf 3b 0d bc 64 2b 0a bd 3a dd a6 bc
       0.016728554 -0.0086202165 -0.033732787 -0.02036916
000380 91 d0 4b bc 31 c2 75 bc 3c 4d f5 3c 2c a1 fb 3b
       -0.012439863 -0.014999912 0.029944055 0.0076791253
000390 63 a9 a0 3c 05 2f bb 3b c9 74 11 bd 02 2e 2e 3c
       0.01961202 0.0057123923 -0.035511766 0.010631086
0003a0 ef 5c 07 3d d9 e2 d2 bb e1 d5 10 3a 94 5d 99 3c
       0.033047613 -0.0064357338 0.00055250345 0.01872138
0003b0 d3 83 27 bd 68 3e fd bc 08 bd 00 3d 50 8e 77 3c
       -0.0408972 -0.030913547 0.031430274 0.015109614
0003c0 86 e7 ea bb 28 73 4e ba 23 52 4c bc ef a5 be bc
       -0.007168713 -0.0007875436 -0.012470755 -0.023272483
0003d0 31 a9 18 bd d3 7b f3 bc e0 59 25 ba 25 04 93 3c
       -0.03727073 -0.02972213 -0.0006307643 0.017946312
0003e0 58 4d c5 bc 37 3a 91 3a d8 88 05 3b 42 24 e2 bc
       -0.024084732 0.0011079971 0.0020375755 -0.02760518
0003f0 a9 ec 70 3b 7b 66 1c 3c 52 2b bf 3c 3e 2d 98 bc
       0.0036762154 0.009545918 0.023336086 -0.01857626

cls.0.bias f4 [256]
000000 67 21 02 3d 0c a6 b5 3b 97 1d c4 3c 33 ef 8a bc
       0.031770136 0.005543476 0.02393989 -0.016959762
000010 be 7b f4 3c 05 0e 5e bc 3e e5 df 3c 4f e6 f1 bc
       0.029844161 -0.013553147 0.02733099 -0.029528765
000020 a4 ef 6a bc c0 52 e8 3c 25 6b be bc 8c fe b5 ba
       -0.014339361 0.02835977 -0.02324445 -0.0013885065
000030 dc 47 b4 3b 97 fb 12 bd be ab 03 3c fc 77 03 bd
       0.0055017304 -0.035884466 0.008036552 -0.032096848
000040 23 8a 08 3d 71 a9 5f bc 5f 9a 80 3c 1d f0 39 bc
       0.033334862 -0.013651238 0.01569861 -0.011348751
000050 92 86 b5 bc f9 51 11 3d 15 bf 05 3d d9 eb 0b bd
       -0.022158895 0.035478566 0.032652933 -0.03416047
000060 97 82 14 bd 1d fa 92 3c 9b 90 06 3d e6 e5 d1 3c
       -0.036257353 0.017941529 0.03285275 0.02562232
000070 e9 e1 9d 3c f7 9f 1b 3b 4c de 92 bc 30 12 ed bc
       0.019272761 0.002374647 -0.017928265 -0.028939337
000080 e9 31 5e bb 14 dd ff 3b e0 a6 d1 3c fd a6 dc bc
       -0.003390426 0.007808337 0.025592268 -0.026935095
000090 02 cd 05 3d 23 e7 36 bc 34 dc d1 3c 0b cf bf 3c
       0.032666214 -0.011163506 0.025617696 0.023414155
0000a0 0a 46 b4 3c 4d f2 c3 3c 98 ed 44 3b 77 56 18 bd
       0.022006053 0.023919249 0.0030048843 -0.037191834
0000b0 64 5f 17 3b 82 37 f6 3a e6 17 ce bc 47 4c 89 3a
       0.0023097629 0.0018784853 -0.02515788 0.0010475003
0000c0 b4 24 b3 3c 71 9e 0f bd 89 7c f9 bc 18 22 ef 3c
       0.021868087 -0.03506321 -0.03045489 0.029191062
0000d0 cc 4d dc bc 3c 0e 23 3c 5d 10 42 3c ea c4 b1 bc
       -0.026892565 0.009952124 0.011844722 -0.021700341
0000e0 f2 4e fd bb b9 7c 0d bd 92 c4 07 3d da 79 aa bc
       -0.0077303583 -0.034542773 0.03314645 -0.020810056
0000f0 b4 51 6e bc d6 ff 96 bc 30 cf e5 3c 23 a7 05 bd
       -0.014545847 -0.018432539 0.028052896 -0.032630097
000100 14 d6 ce ba db ca 00 bd 40 dd f9 3c 4b b9 f4 bb
       -0.0015780353 -0.031443458 0.030501008 -0.0074683777
000110 e5 0e 61 3c 86 7d 7d bc d9 c9 ee 3c 3b 7e 0c 3c
       0.013736461 -0.015471822 0.029148983 0.008575018
000120 5c 20 b4 bc 92 82 d0 bc a0 91 f3 3c 0d 42 0c 3c
       -0.021988086 -0.025452886 0.029732525 0.00856067
000130 f9 5e 31 bc f2 b6 5a 3c bc 5c de 3c 6a 41 e6 3b
       -0.010825866 0.013349282 0.027143829 0.007026841
000140 e6 ff 34 bc c4 ff 0e ba 0f b4 12 bd ba 0f 01 3d
       -0.011047339 -0.0005454982 -0.03581625 0.03150914
000150 bc ab 0c 3d dc 9f a3 3c 4c 95 ef bc 51 96 9d 3b
       0.034343466 0.019973688 -0.029245995 0.004809179
000160 b9 ee b4 3c 00 80 3a 3c 85 c4 c1 3b 5b 70 a5 3c
       0.022086488 0.011383057 0.0059133195 0.020195177
000170 25 6d f3 3c d0 49 a4 3c 2c 62 fb 3c c5 45 6e bc
       0.02971513 0.020054728 0.03068646 -0.014543002
000180 05 e3 5d bc c8 72 b1 bc 8e c9 ef bc d8 e9 c7 bc
       -0.013542895 -0.021661177 -0.029270913 -0.024403498
000190 95 8b 78 bc df 53 ea bc e4 d2 70 bc 34 c0 1d 3c
       -0.015169998 -0.028604446 -0.014698718 0.009628344
0001a0 82 55 0e 3d 02 81 b2 3b 8b d2 75 3b f4 4c 12 bc
       0.034749515 0.005447508 0.0037509527 -0.00892948
0001b0 7a df a3 bc 5d 23 82 3b 44 51 bf bc 13 8d ea 3c
       -0.020004023 0.003971501 -0.02335418 0.028631723
0001c0 ec 46 e3 3c de 2c 68 3c bd a3 e5 3c a9 85 80 bc
       0.02774378 0.014170853 0.028032178 -0.015688734
0001d0 79 d0 43 3c d3 65 90 3c 0e 70 b4 bc c4 e5 bc 3b
       0.011951559 0.017626679 -0.022026088 0.005764695
0001e0 78 14 cb bc 86 8b e4 3b 76 ba 77 bc 80 2d ec 3b
       -0.024790034 0.0069746403 -0.015120139 0.0072075725
0001f0 f1 85 92 bc 12 d3 e4 bc 8a df de 3c f3 e0 0a 3d
       -0.017886134 -0.027932677 0.027206201 0.033905935
000200 37 b7 d1 bc 70 19 25 3d 95 9b b1 bc 4b 04 8b 3c
       -0.025600059 0.040307462 -0.021680633 0.01696982
000210 a1 4f 48 3b 43 6d e2 bc 78 3e 42 3c aa a9 7b bc
       0.003056504 -0.02763999 0.011855714 -0.015360275
000220 f0 be 86 3c a8 2d 36 bc ec 89 47 3b 64 70 06 3d
       0.016448468 -0.011119284 0.0030447198 0.032822028
000230 f3 6d 0e bd a1 3e 8a bc 12 db df bc 3d 52 03 bd
       -0.034772824 -0.016875567 -0.02732614 -0.03206085
000240 d4 ed 15 3d c4 36 19 3c 76 f4 c4 bc 17 34 50 3c
       0.036603764 0.009351436 -0.02404235 0.012707732
000250 c9 b0 d9 3c 71 6a 2e bc 4f e2 7d bc d8 d5 ae 3a
       0.026573556 -0.010645495 -0.015495851 0.0013338877
000260 02 d6 8f 3c 23 a8 b0 3b 2e 18 d6 bb b9 c6 74 3b
       0.017558102 0.005391137 -0.006533644 0.0037349893
000270 38 f8 b5 3c 78 90 d3 3b 3a c6 93 bc ca 90 0c bd
       0.022213086 0.006456431 -0.018038858 -0.03431777
000280 4d 8a 2f bc b8 ea 1d 3c a6 22 9f 3c e9 3a 36 3c
       -0.010714126 0.009638481 0.019425701 0.011122444
000290 f0 a3 9e bc 8a 78 67 3c 84 e5 92 3b 61 a7 17 3b
       -0.01936528 0.01412786 0.004482927 0.0023140537
0002a0 c5 5f c1 3c 4f db ad bc 98 15 03 3d 69 cd c0 3b
       0.023605237 -0.021222739 0.032003015 0.005883862
0002b0 13 ab 83 3c 1d 55 ea bb b3 83 ac bc fd 37 21 bb
       0.016072785 -0.0071512596 -0.021058893 -0.0024600022
0002c0 55 cb b7 3c 42 b2 5a 3c 6f 8c 0a bd ba 96 84 bb
       0.022435823 0.013348164 -0.033825334 -0.0040462883
0002d0 e8 82 58 3c c4 fa 83 bb 71 5a d8 bc 40 74 42 bc
       0.013214804 -0.0040276963 -0.026410313 -0.0118685365
0002e0 c0 8a 3a 3b 86 12 7d bb e7 9a 97 bc aa 43 3a 3c
       0.002846405 -0.0038615777 -0.01850648 0.011368671
0002f0 ff 40 d9 3b 6c 36 f7 bb 2d e6 bd bc 4b 9e 52 3c
       0.0066300626 -0.0075443294 -0.023181045 0.012855123
000300 df 3e a5 3c 7b cf a1 bc d5 70 90 bc 9c 95 36 bc
       0.02017158 -0.019752255 -0.017631928 -0.011144068
000310 41 f5 77 ba 88 65 61 bc 5a 6b 23 3b 42 2b 46 3b
       -0.0009458848 -0.013757117 0.0024935813 0.0030238186
000320 19 87 0f bd a0 12 e9 3c 62 94 87 bb 7c 5c 7a bc
       -0.03504095 0.028451264 -0.0041375617 -0.015280839
000330 6d f0 43 bc b3 74 85 3c 9d b1 01 3d 6e dd d9 bc
       -0.011959177 0.016290998 0.031663526 -0.026594844
000340 dc 0b 1d bc 00 7b 1f bb 17 1a 25 ba c7 5a 92 ba
       -0.009585347 -0.0024334788 -0.0006298138 -0.001116597
000350 29 b4 8b bb 8b d7 56 bb 7f e8 3d 3c 17 c2 39 bc
       -0.00426342 -0.0032782282 0.011591076 -0.0113377785
000360 d8 6b 39 bc 3e cb d0 bc 27 8a e6 3b 03 de 8f bc
       -0.011317216 -0.025487538 0.007035512 -0.017561918
000370 73 67 61 bc a4 a8 eb 3c e3 6b 53 bc 45 88 b0 bc
       -0.013757574 0.028766938 -0.01290414 -0.021549353
000380 a4 97 8e bc c9 a3 01 3d 6d aa b9 bc 92 0c 5b bc
       -0.017406292 0.03165034 -0.022664273 -0.013369696
000390 d4 b4 52 bc c9 dd 9e 3b 08 05 77 3c 19 a6 e9 bc
       -0.012860496 0.004848216 0.015076883 -0.028521584
0003a0 7d 35 89 bc bc e3 64 3c 78 90 8c bc 7a 99 c7 3c
       -0.016749138 0.013970312 -0.017158732 0.024365176
0003b0 2e 9f 0e bd db bc 0e 3d c6 af 99 ba b8 b7 8b bc
       -0.034819774 0.034848075 -0.0011725358 -0.017055377
0003c0 0e 25 c3 3a 26 9c a8 bc 8a 50 81 bc 12 12 c9 bb
       0.0014888362 -0.02058227 -0.015785474 -0.0061361874
0003d0 32 12 fb 3c ef 25 60 bc 00 81 c7 bc 10 16 e2 bc
       0.030648325 -0.013680919 -0.024353504 -0.02759841
0003e0 ff 2f 0c bd b9 37 e2 3c d7 45 9e 3c dd 8f e6 3c
       -0.03422546 0.027614461 0.019320412 0.028144771
0003f0 34 4d 9d bc 88 ab 97 3c 3c e7 d5 bb 2d 7b 69 bb
       -0.019201852 0.01851441 -0.0065278094 -0.0035626397

cls.3.weight f4 [128, 256]
000000 8e b4 ab 3c c4 4c 24 bd 20 31 61 bd fb ca 42 bc
       0.020960119 -0.040112272 -0.05497849 -0.011889215
000010 b8 55 41 bd 70 c8 24 bd c6 bf 2c 3d 48 c8 2a 3d
       -0.04720089 -0.040230215 0.042175077 0.04169491
000020 88 d6 06 bd 8d 68 8c 3c d6 df f0 3c f6 f7 df bc
       -0.032919437 0.017139697 0.029403608 -0.027339917
000030 d1 6e 53 bc b5 04 7d 3d 54 6d e8 bb f5 c2 6a 3c
       -0.012904839 0.061772067 -0.007093111 0.014328708
000040 17 30 01 bc 21 5c 58 bc dd 8f 59 bc cc d5 d5 3c
       -0.007885001 -0.013205559 -0.013278929 0.026102923
000050 c2 a2 fb 3b d9 f6 f1 3c 29 1a dd bc 32 eb 35 3b
       0.0076793144 0.029536651 -0.026990013 0.0027758596
000060 8c 2f 34 bc ca fd 42 3d 08 60 01 3d f9 ce 1d 3d
       -0.010997664 0.047605313 0.031585723 0.038527463
000070 21 cb 3a 3d da e5 14 3d 86 94 fb bb ec ff 0f bd
       0.045603875 0.036352016 -0.0076776175 -0.035156175
000080 24 10 ac 3b 1d 73 4e bc 5a c7 45 3d 67 d6 a1 bc
       0.0052509475 -0.012600687 0.04828582 -0.019755555
000090 10 22 94 bc 31 9c a6 3c 41 bd 0e bc 8c 09 95 bc
       -0.018082649 0.02033815 -0.008712114 -0.018193029
0000a0 d9 62 08 bd 10 3a c0 3c d4 61 1f 3c 38 30 ba bc
       -0.033297393 0.023465186 0.009727914 -0.02272807
0000b0 82 fd af bc 0a af f2 3c 00 9f 2f bd 6c 81 a1 bc
       -0.021483187 0.02962448 -0.042876244 -0.019715033
0000c0 f5 0f 62 3d b5 01 36 3d 5d 08 dd 39 b9 6a 8a ba
       0.055191 0.04443522 0.00042158636 -0.001056037
0000d0 c3 8c 12 bd db 0f a8 bc 76 0f 28 bd 68 54 72 bb
       -0.035778772 -0.020515373 -0.04103037 -0.003697658
0000e0 b7 15 ae bc 60 ca dc bc da 35 96 bb 3c 43 50 3c
       -0.021250589 -0.026951969 -0.0045840563 0.012711342
0000f0 80 52 6a bd 33 af 68 3b 4f 79 e1 3c fd 00 0a bd
       -0.057207584 0.0035504817 0.027523665 -0.03369235
000100 14 e6 ee 3c 00 fe 00 bd e6 58 32 3d 4c 34 8c 3c
       0.029162444 -0.031492233 0.04354181 0.01711478
000110 40 1a d7 bc 16 8b d7 bc 91 08 89 3d a0 c5 4e 3d
       -0.026257634 -0.026311439 0.06691087 0.05048144
000120 c9 84 02 3d 23 b4 95 bc 0e e0 1f 3d ea 23 93 bc
       0.031864915 -0.018274372 0.039032035 -0.017961461
000130 b5 fe ed bb a5 c3 29 3d 61 7d d1 3b cd 6d 24 bd
       -0.0072630295 0.041446347 0.00639312 -0.040143777
000140 31 e0 30 bd 2e 41 63 3c 42 42 60 3c f9 86 a7 3c
       -0.043182556 0.0138705205 0.013687672 0.020450102
000150 fa 5f 09 bd 40 eb e4 3b 8e 86 d4 3c b9 c7 9d bc
       -0.033538796 0.006986052 0.025943067 -0.019260274
000160 60 ac b2 3c e0 20 97 bb 78 a5 09 bd d8 1f 25 3d
       0.02181071 -0.0046120733 -0.03360507 0.04031357
000170 ce 99 df bc 75 a4 ec 3b fa 6e a1 bc 1b 3a a6 3c
       -0.02729502 0.0072217532 -0.019706238 0.020291379
000180 5d ac 2d 3c b6 39 16 bd 5d f7 0f bc a0 b6 95 ba
       0.010600177 -0.03667613 -0.008787003 -0.0011422224
000190 e8 62 3d bd d0 92 b7 bc 5a 8f ed bb e2 4b c7 bc
       -0.046236902 -0.022408873 -0.007249755 -0.024328176
0001a0 54 f4 2a 3d 32 42 70 bd 35 0b 34 3d 69 34 5d bb
       0.041736916 -0.05865688 0.043956 -0.0033753163
0001b0 33 8a a2 3c cb dd 57 3b 2e 10 1c bd c4 c0 1a bd
       0.01984129 0.0032938595 -0.038101368 -0.037781492
0001c0 e9 e2 30 3c 9d 2a 7b 3a ca c6 10 bc 19 07 8d 3c
       0.010796287 0.000958124 -0.0088364575 0.017215298
0001d0 bf f7 88 3c 31 59 eb 3c b0 ca 84 bc 99 4d 35 bd
       0.016719697 0.028729053 -0.01620993 -0.044263456
0001e0 2b 53 92 3b 49 5d 1d bd c7 f3 53 bd c7 a0 f6 bc
       0.004465481 -0.03841904 -0.051746156 -0.030105961
0001f0 3e 75 08 bd c7 5b 60 bc a5 8b 61 bc 74 ed ff bc
       -0.033314936 -0.013693756 -0.013766204 -0.031241156
000200 f7 93 1c bd ae f0 db 3c 8a 9c 21 3d 2b dc 3e bc
       -0.038227048 0.026848163 0.039455928 -0.011649172
000210 04 ee 48 3d d8 e0 b4 3c 6b 82 09 bd 57 df 49 3d
       0.049055114 0.02207987 -0.033571642 0.04928526
000220 54 78 50 3d d2 8f 59 3d de 46 78 bd e3 ac 05 3d
       0.050896004 0.053115673 -0.06061446 0.03263558
000230 83 04 eb 3b 1c ad 16 3d 0d 65 05 bc 8f 85 25 bc
       0.0071721687 0.036786184 -0.008141768 -0.010102644
000240 f8 82 1d 3d a1 26 69 bd 7d d4 6e 3d cc 17 d5 bc
       0.03845498 -0.056921605 0.058308113 -0.026012324
000250 de a6 76 bd ed 5f 15 bd e9 37 90 bc 5e 1d e1 3c
       -0.06021773 -0.036468435 -0.017604785 0.027479824
000260 81 3e 8a 3c 89 72 91 ba 17 1f c4 bc ad a2 24 3d
       0.016875507 -0.0011096756 -0.023940606 0.040194202
000270 34 87 cf 3c ba e0 42 3d a6 26 58 bb 0d 32 3e 3d
       0.025333025 0.047577597 -0.003298202 0.04643445
000280 9a e9 f1 bc 35 5d b2 bc ec 30 47 3d 2f 4f 54 3d
       -0.029530335 -0.02177296 0.04863064 0.051833328
000290 6e e1 50 3d 31 19 6a 3d ad dd 25 bd d3 54 a7 3c
       0.050996237 0.05715293 -0.04049461 0.02042619
0002a0 f3 59 be 3c 56 11 88 bc fc c4 fc 3c 94 22 24 3d
       0.02323625 -0.016609829 0.030855648 0.04007204
0002b0 47 b1 0b 3d 25 a4 59 bc 30 dd aa 3c 0e 00 05 bc
       0.03410461 -0.013283764 0.020857424 -0.008117689
0002c0 54 5b 15 3c b9 20 9f bc e7 64 f0 3c a9 43 a4 3c
       0.009116013 -0.019424783 0.029344989 0.020051794
0002d0 a9 46 26 3b 77 9f eb 3c b0 b7 20 bc af 2d 21 bd
       0.0025371707 0.028762562 -0.0098094195 -0.039350208
0002e0 f3 f6 c3 3c c4 37 f6 ba 4f 2d 29 3d 4f 10 27 3d
       0.023921466 -0.001878493 0.041302975 0.040787037
0002f0 3c e3 35 3d e9 4e 94 3c 94 0a 75 bc 83 00 0b 3d
       0.04440616 0.018104034 -0.014956135 0.033936035
000300 24 f2 3e bd 8c 3c de 3c 8c 0b 24 bd 98 59 73 3d
       -0.046617642 0.02712848 -0.040050074 0.059411615
000310 ac 1c 86 bc aa 81 50 3a b6 9e 0f bd 10 7d 14 3d
       -0.016371094 0.0007953892 -0.035063468 0.03625208
000320 21 66 92 bb e3 eb 64 3d f1 7d 60 bd 7e 42 f8 3c
       -0.004467741 0.05588902 -0.054807607 0.030305143
000330 64 08 5b bd 04 b9 43 bd 21 e4 a8 3b 60 58 48 3c
       -0.0534748 -0.047783867 0.005154148 0.0122281015
000340 a3 1e 72 bd f3 9e 5b bd 6d 11 ad 3c 59 5a 9d bb
       -0.05911125 -0.053618383 0.021126473 -0.00480203
000350 9c 1b 26 bd 58 73 04 bd 29 f9 6c bd e7 6e 18 bc
       -0.040553674 -0.032336563 -0.057854805 -0.009303785
000360 89 80 c5 3c e7 6e af bb bc 2b 95 bd 76 6a 39 bd
       0.024109142 -0.0053537968 -0.07283732 -0.045267545
000370 4f 73 6f bc 24 30 c6 3c c4 48 0c 3d 0b 57 07 bd
       -0.014614894 0.024192877 0.034249082 -0.033041995
000380 f5 c1 2e 3c 8c 93 72 3c ea 1d 11 bc 2e 17 42 3d
       0.01066636 0.014805686 -0.00885723 0.047385387
000390 20 f0 71 bc dd f5 63 3d 7a ce e1 bb ec 41 07 3c
       -0.014766723 0.055654395 -0.006891069 0.008255463
0003a0 8f 08 6b 3d 09 86 a8 bc 43 ad 36 3d 4d 03 f6 bc
       0.05738121 -0.020571725 0.04459883 -0.03003087
0003b0 f2 cb 0b 3c 3f 47 1e bd 70 2c 9a 3c f7 f2 51 bd
       0.008532511 -0.038642164 0.018820018 -0.0512571
0003c0 ab b2 12 3c f7 4f 3a 3d 03 d4 0c 3c 3c 02 64 bd
       0.008953731 0.045486417 0.008595469 -0.055666193
0003d0 5a 23 18 bd b2 69 7e 3c 80 47 fe 3c d3 f9 a1 3c
       -0.03714309 0.015528129 0.031039953 0.019772446
0003e0 60 13 02 bd 9c 24 d0 3c f0 08 0d bd e0 64 21 bd
       -0.03175676 0.025408082 -0.03443235 -0.039402843
0003f0 09 62 75 bd a0 89 d9 bb c6 92 cd 3b 82 c8 46 bd
       -0.059907947 -0.0066387206 0.0062736003 -0.048531063

cls.3.bias f4 [128]
000000 de 01 62 bd 84 94 c7 3c 0a 6e 81 bb cb b6 26 3d
       -0.055177562 0.02436281 -0.0039498853 0.04070167
000010 c5 6f 4c bd 5f 18 20 3b 62 17 83 bb 52 bc 6e bd
       -0.04991128 0.0024428589 -0.00400059 -0.058285065
000020 f7 9f 4a 3d 06 b6 16 3d c4 cf 55 3d ef 2e 0a bd
       0.04946896 0.036794685 0.052200094 -0.033736166
000030 0c 7d ec bb b4 09 51 bd 2d 14 6b bd 16 cf 28 bd
       -0.007217055 -0.051034644 -0.057392288 -0.041213118
000040 e8 8f c9 3b 79 05 5b 3d 65 19 82 3d 63 3e a5 bc
       0.006151188 0.053472016 0.063525 -0.02017135
000050 8d b3 73 bd 3f 05 f1 ba 04 9e 09 bd 49 ff 4c 3d
       -0.059497405 -0.0018388404 -0.03359796 0.050048146
000060 cf b5 83 3d 19 1e 11 bc 84 5a 60 bd 7c 86 f0 3c
       0.064311616 -0.0088572735 -0.054773822 0.029361002
000070 47 2b 21 bd 17 12 58 bd 33 8e 34 bd a6 f5 7b 3b
       -0.039347913 -0.052751627 -0.044080924 0.0038445978
000080 26 f4 db 3c ca 73 33 3d a6 30 c5 3c 7f fb 02 bd
       0.026849817 0.043811597 0.024071049 -0.031978127
000090 cc 97 50 bd d2 33 08 bd f8 a0 92 3c 94 4d ce bc
       -0.050926015 -0.033252545 0.017899022 -0.025183477
0000a0 f5 2e a1 bc 8e 42 1c 3d da e4 7e bd 93 83 3c 3d
       -0.019675711 0.03814941 -0.06222997 0.046023916
0000b0 67 77 74 3d e8 93 1a bd 84 61 6d 3d 68 6a 99 3c
       0.059684183 -0.03773871 0.057954326 0.018727496
0000c0 54 62 4c 3d cf 71 e6 ba 7f 53 6a 3d 4d b1 85 3c
       0.04989846 -0.0017581525 0.057208534 0.016319895
0000d0 21 3f 63 bc 99 69 54 bd 6d 70 3a bd 3d 26 82 bc
       -0.013870032 -0.05185852 -0.045517374 -0.015887374
0000e0 cc ff 4e 3d 51 5d e4 bc 3e 99 15 3d 0f d5 af bc
       0.050536916 -0.027876528 0.036523096 -0.021463899
0000f0 b9 34 0b bd f7 96 6a bd 31 40 10 3d 9e 88 13 3a
       -0.033985827 -0.057272878 0.035217468 0.00056279625
000100 cd 70 91 ba 5b f3 6c bd 44 89 27 3d b5 0a f8 3b
       -0.0011096239 -0.05784927 0.04090239 0.0075696358
000110 fa 9c 2d 3d f7 bc 3b bd 84 ec ab 3c fc f0 b4 3a
       0.042386033 -0.045834508 0.020986803 0.0013804729
000120 2d de 94 3c cc dd 5c bd 29 dc f1 3c d1 06 d0 3c
       0.018172348 -0.05392246 0.029523926 0.025393875
000130 5d 29 d3 ba 49 dd 5f 3d 0f f4 48 bd c0 6f 2f bd
       -0.001611035 0.054654393 -0.049060877 -0.042831182
000140 d2 1c 67 bd a3 3c c0 bc ff 10 7f bd 66 12 2e bd
       -0.05642397 -0.023466414 -0.062272068 -0.042498015
000150 27 54 3c 3d 3a ad 18 3b 39 fb 3c bc ca 1c 55 3d
       0.04597869 0.002329661 -0.0115345055 0.05202941
000160 aa f3 90 3c f2 11 ad 3c 68 e4 58 3c 73 c7 67 bd
       0.017694313 0.021126721 0.01323805 -0.056586694
000170 fb 8a fa bc 01 e3 c0 bc 13 e3 51 3c 9e f2 19 3d
       -0.03058385 -0.023545744 0.012810486 0.037584893
000180 a6 07 ba 3c 7f 19 65 bd 6f 84 d5 bb 3f 55 cc bc
       0.022708725 -0.055932518 -0.0065160315 -0.024942992
000190 6c 15 5e bc 20 e4 0a bd 49 5d 20 3d 44 19 aa 3c
       -0.013554912 -0.033908963 0.039151464 0.020764
0001a0 68 86 f5 bc 76 3a 68 bd 7e 3e d9 3c df 7d 15 bd
       -0.029971316 -0.056696378 0.026519056 -0.036496993
0001b0 34 28 84 bb 20 66 c4 3a 1f 5d 6a bb 10 8b 4f 3d
       -0.004033113 0.0014984049 -0.003576107 0.05066973
0001c0 47 c0 cb bb ac 22 55 bd 22 43 cd 3b 7a 87 56 bd
       -0.0062179896 -0.05203502 0.0062641064 -0.052375294
0001d0 98 71 40 bc 3f d4 33 bd 8b 93 84 bd d4 14 2b bd
       -0.011745833 -0.043903586 -0.06473454 -0.04176791
0001e0 28 a7 37 3d 27 da 01 3c 73 f6 9a 3b e3 37 bb bb
       0.044837147 0.007925547 0.004729086 -0.0057134493
0001f0 01 4d 36 3d 19 ef c3 3b c3 58 06 3d 36 f4 71 bd
       0.04450703 0.0059794304 0.032799494 -0.05907079

cls.6.weight f4 [64, 128]
000000 13 90 ab bc cf 30 ca 3c aa 64 c7 3d df 96 38 3d
       -0.020942723 0.024681477 0.09735997 0.045065757
000010 34 8e 9b 3d b2 db 3c bd 58 d6 a5 3a 60 2f db 3c
       0.075954825 -0.046107955 0.001265238 0.026755989
000020 f0 2e 32 3c 7a 51 98 bd 74 82 45 3b 52 fd f9 bc
       0.010875449 -0.074374154 0.003013757 -0.0305163
000030 3c 7a 4d 3c ff d5 90 3d f5 2b 41 3d cc 5d 00 3d
       0.01254135 0.070720665 0.04716106 0.03133945
000040 9c 5c d8 bb 33 78 93 3c c7 80 51 bd 70 bd b9 bd
       -0.006602837 0.018001651 -0.051148202 -0.090693355
000050 84 b4 d3 bc 65 37 b6 3d 2f 31 eb 3c 44 d4 8b 3d
       -0.025842912 0.088972844 0.028709976 0.06827596
000060 80 79 8d 3d 15 d2 34 3b 91 d3 b5 bc 55 e5 2a 3d
       0.0690794 0.002759104 -0.02219561 0.041722614
000070 1e a7 0d bd 6f 81 52 3d 1d b0 8e 3d 61 7f 67 3d
       -0.034583203 0.05139297 0.06967185 0.056517962
000080 54 13 27 3d a2 0c 22 bd e9 1a 61 bd d7 fc 46 3d
       0.040789917 -0.03956283 -0.054957304 0.04858097
000090 5b 8e 36 3d a4 84 d3 bc 6b 55 42 bd 49 d0 4d 3d
       0.044569355 -0.025820084 -0.047444742 0.050247464
0000a0 6b 1a 37 bd 5a 2f 15 bd d1 b6 8c 3d da 1c 02 bd
       -0.04470293 -0.03642211 0.06870807 -0.031765796
0000b0 2c ab da bb b0 92 8c bd bc eb ce bc 79 6c 1e bd
       -0.0066732373 -0.06863916 -0.025258891 -0.038677666
0000c0 d0 39 2d 3d bb 14 43 bd d4 b7 b8 3b a9 bc 91 3d
       0.042291462 -0.047627192 0.0056371484 0.07116062
0000d0 86 ca 4c bd 9f d2 98 3a 4c 83 2d 3d a1 a8 67 3d
       -0.04999783 0.001165945 0.042361543 0.0565573
0000e0 76 77 b3 bc e8 0f 0c 3c 2b 4a 9d bc 06 4e 96 3d
       -0.02190755 0.008548714 -0.019200405 0.073391005
0000f0 f1 41 a6 bc 45 8b 4a 3c 14 3a c7 3d b0 08 bc 3d
       -0.020295115 0.012362306 0.097278744 0.091813445
000100 39 a3 ab 3d d8 3a 8b bd f0 39 00 3d 3f 0d 0c bb
       0.083807416 -0.06798333 0.031305254 -0.00213702
000110 b2 cd 2d 3d 25 30 6d bc 19 19 9d bd 35 f7 1c 3c
       0.042432494 -0.014476811 -0.076708026 0.009580423
000120 ba 7c 5e bd 31 96 cf bc bf 94 3d bd 06 f3 a2 bd
       -0.054318167 -0.025340172 -0.046284433 -0.07956509
000130 31 0a a7 3c 53 3f 9c 3d 3a 2b 5a 3d ca e8 9d 3d
       0.020390602 0.07629266 0.05326388 0.077104166
000140 18 3d 8d 3d ac 5e c3 3c 2a 6a 20 3d b8 4e 5e bd
       0.06896418 0.023848854 0.039163746 -0.05427429
000150 40 69 51 3d 95 9a 72 bd ba c4 93 bd 34 c8 17 bc
       0.051125765 -0.059229452 -0.07215257 -0.009264041
000160 50 af 49 3d 20 48 08 3d bc 8a 5c 3d 35 9b 07 3d
       0.049239457 0.03327191 0.053843245 0.033107
000170 21 07 85 bd f4 24 8a bc 93 cf c1 bd b3 07 80 3d
       -0.064955 -0.016863324 -0.0946342 0.062514685
000180 8b 34 aa 3d 00 e6 16 3d 5b 49 9a bd fb 78 46 3d
       0.08310803 0.03684044 -0.07533523 0.04845522
000190 7b f7 d9 3b 33 42 9f 3d 65 5a b1 3c e3 90 3a 3d
       0.0066518164 0.077762984 0.021649549 0.04554833
0001a0 7f d6 83 bb 2a ca a8 3d 06 d2 63 bd 88 c2 3b 3d
       -0.0040233727 0.08241685 -0.055620216 0.045839816
0001b0 89 5e ab bd f9 dc c9 bc 3c ec 23 bd ca 33 8e 3d
       -0.083676405 -0.0246415 -0.040020213 0.06943472
0001c0 84 e9 5a 39 93 80 4f 3d 05 77 18 bd da 97 a5 3b
       0.00020877091 0.050659727 -0.03722288 0.0050535025
0001d0 78 b5 3a bd 46 a8 a5 3b 39 79 98 bd 20 17 78 3d
       -0.04558322 0.00505546 -0.074449964 0.06056893
0001e0 b5 3f 72 3d c9 65 34 bd 63 35 fa bc df c7 8b 3c
       0.059142787 -0.044042382 -0.030543035 0.01706308
0001f0 c7 18 f4 3c d3 00 aa 3d d9 58 1c bd d2 09 81 3d
       0.029796971 0.083009385 -0.03817067 0.06300701
000200 f8 02 5d 3c 31 35 bc 3c 11 db 25 3d 53 86 01 3d
       0.013489477 0.022974582 0.04049212 0.031622242
000210 7f f5 f6 3c 2e 33 ac 3c 4a 7a 28 3d 50 80 1e 3d
       0.030146359 0.021020498 0.04113225 0.038696587
000220 a4 bd 3b bd 7b 6f e4 ba bc 8d 9e 3c 4a 38 21 3d
       -0.045835152 -0.0017428243 0.019354694 0.039360322
000230 ad ef 46 bd 75 29 66 bd f8 fa db 3c 55 0b 64 3d
       -0.048568416 -0.05619188 0.02685307 0.05567487
000240 0c 69 84 bd 66 78 17 bd 6b df 7a 3d 22 c5 64 3b
       -0.064653486 -0.036980055 0.061248224 0.003490754
000250 ae 91 bb 3c a2 1e ef 3c e0 ff 88 bd 05 04 04 3d
       0.022896614 0.029189412 -0.06689429 0.032230396
000260 0d 48 bc bc 89 62 97 bd eb cf 97 3d 65 8c aa bc
       -0.022983575 -0.07391841 0.07412704 -0.020818898
000270 42 58 72 bd e6 2e 0d 3d 3c 9a 08 3d 76 28 65 bd
       -0.0591662 0.034468554 0.033350214 -0.05594679
000280 d4 93 aa bd 40 b5 42 bd de 5c 51 3d 3c e5 9a 3d
       -0.08328977 -0.047536135 0.051113956 0.07563254
000290 54 fb 8d 3d cb b3 1b bc 04 db 02 3c d2 e4 47 3d
       0.06932703 -0.009503315 0.007986788 0.048802204
0002a0 f2 b5 f2 3c fa 65 1e 3d 72 11 51 3d 99 80 62 3c
       0.029627774 0.03867147 0.051042028 0.013824605
0002b0 6e 36 d2 bc 35 d8 13 bd f4 d3 00 bd 75 ed 85 bd
       -0.02566072 -0.036094863 -0.031452134 -0.06539432
0002c0 dd ef b3 3c 29 2c 46 3d 08 93 8d bd 2e e9 8c 3d
       0.021964962 0.04838196 -0.069128096 0.06880413
0002d0 2a fc 22 3d 76 c1 02 3d ff be b3 bd 18 9c 76 3d
       0.039791264 0.03192278 -0.08776664 0.060207456
0002e0 ca ff 7a bd bd da 25 bc 99 19 90 bb f0 af ae 3b
       -0.061279096 -0.010122952 -0.0043975827 0.005331032
0002f0 ec e6 74 3b 4c a2 86 bd f3 9d 43 3c 99 c9 83 3d
       0.0037369085 -0.065739244 0.0119395135 0.06434936
000300 5a 88 99 bd 84 7a 95 bd 8c 10 19 bd d0 87 4b 3c
       -0.0749671 -0.072987586 -0.037369296 0.012422517
000310 51 5e b0 3c 84 ac 92 3d df e2 28 3d 2d f6 ae bc
       0.021529349 0.07161811 0.041231986 -0.02135762
000320 98 85 e2 3c 82 99 97 bd 43 75 1b 3d b6 f2 6d 3d
       0.027651593 -0.07402326 0.037953626 0.058092795
000330 93 1f e4 3c d6 5f e3 3c 9f 71 13 3d 35 3d 31 3d
       0.027847087 0.02775566 0.03599703 0.043271262
000340 93 7f 3f bd fb 49 1a bd a4 22 70 bb 11 92 c6 3c
       -0.046752524 -0.03766821 -0.0036641741 0.024239572
000350 0e ef 15 bd 33 13 71 3d ce f5 11 3d 84 c3 bc bd
       -0.036604933 0.0588562 0.03563481 -0.09216979
000360 23 48 19 bc 6b f5 86 3b 96 6e 84 3d f4 08 38 3d
       -0.009355578 0.0041186116 0.06466405 0.044930413
000370 f3 c9 f8 3c 5b 4b fa bc 3f 2b 49 bd c5 ec 01 3c
       0.030369734 -0.03055351 -0.04911351 0.007929985
000380 63 fe 37 3d 9f 0d bf bc 27 f1 6a bd bb 7d 65 bd
       0.044920336 -0.023321925 -0.057358887 -0.05602811
000390 bc ec ef bc d9 82 3e bd ce 7f 86 bd 08 e1 7d 3d
       -0.029287688 -0.046511505 -0.065673456 0.061982185
0003a0 f5 c4 a1 bc c6 2d 6a bd 62 06 a8 bd a7 79 68 3c
       -0.019747237 -0.05717256 -0.082043424 0.01418916
0003b0 d7 ed 99 bd 45 44 2d bd bd 59 a3 3c 95 1a aa bd
       -0.075160675 -0.042301435 0.019940251 -0.08305851
0003c0 9f f7 ef bc a7 3b 36 bc ca df f9 3c b4 f2 42 bc
       -0.02929288 -0.011122621 0.030502219 -0.011898685
0003d0 6b d4 96 bd cc 82 e8 bc 00 c3 6c bb 8d 6e 22 bd
       -0.07364734 -0.028382681 -0.0036126971 -0.03965621
0003e0 c8 9b 73 bd 2b 9e 5f bd ae 75 33 3d 7e 55 e7 3c
       -0.059474736 -0.0545942 0.0438134 0.028239008
0003f0 3d f5 86 bd 3a b0 77 bb 79 3c 43 bc ed 16 92 bb
       -0.06589744 -0.0037794248 -0.011916273 -0.0044582994

cls.6.bias f4 [64]
000000 3f 77 85 3d a1 12 88 3d ab 47 44 3d ec ad ea ba
       0.06516885 0.06644178 0.04791991 -0.0017904616
000010 1c 3e 91 3d 31 12 89 bd 53 bf 88 bd fc 99 8f bd
       0.070919245 -0.06692923 -0.06677117 -0.07011792
000020 f8 38 fb bc e8 a2 9a bd be 86 a0 3d b8 bb 34 3d
       -0.030666813 -0.07550603 0.078382 0.044124335
000030 40 e2 18 3d 28 1a 8c 3d 72 dc 12 3d 86 e7 99 bd
       0.037325144 0.068409264 0.035854764 -0.07514863
000040 28 26 35 3d b1 40 87 3b 6a a0 9d bd d7 6f 8e bd
       0.04422584 0.004127585 -0.07696612 -0.069549255
000050 48 5b 70 3d 55 a5 fe 3b 8e 37 a0 3d b1 7f 90 3b
       0.058680803 0.007771174 0.07823096 0.0044097533
000060 bd e7 ff 3c 42 49 ad 3d 4e a2 c7 bd a1 a0 30 3d
       0.031238431 0.084612384 -0.09747754 0.043121938
000070 24 62 2a ba 8d 19 c7 bd 1a 32 17 bd 9d 21 41 bd
       -0.00064996094 -0.0972167 -0.036913015 -0.047151197
000080 43 09 e2 bc 97 6c 0a bd 0b 33 b1 3d f3 2f c2 bd
       -0.027592307 -0.033794966 0.08652314 -0.09481802
000090 a8 9e 28 3c 7a 95 81 3c d0 e9 0f bc 93 a7 5a 3d
       0.010291733 0.015818346 -0.008783773 0.053382467
0000a0 89 a5 c0 3d cf 22 90 bc 7b 00 79 3c 5c aa 0f bc
       0.09406573 -0.017594723 0.015197868 -0.008768644
0000b0 32 67 ac bd be 52 41 3d 01 34 10 3d ad 25 77 3d
       -0.084181204 0.04719805 0.035205845 0.060338665
0000c0 77 a0 cc 3d 53 21 24 bd ac 95 a9 3d fd e3 7f bd
       0.09991544 -0.040070843 0.08280501 -0.062473286
0000d0 83 9a b0 bd 79 8a ea 3b 7c 7b a3 3d fc a5 01 bc
       -0.08623221 0.0071576205 0.07982537 -0.007913109
0000e0 1e d5 b6 3d df 73 7b 3d fb da 98 3d 63 ea c8 3d
       0.08927368 0.0613898 0.07463642 0.09810331
0000f0 e0 c3 bd bd 81 5a a8 bd a9 1c 59 bd 99 fe ff 3c
       -0.09265876 -0.08220387 -0.053005848 0.031249331

cls.9.weight f4 [1, 64]
000000 d2 47 87 3a 5a 9a f4 ba e6 e1 56 3b 74 4a 0e 3b
       0.0010321087 -0.0018661723 0.0032788455 0.0021711858
000010 a8 35 2a 3b 1e 7d d7 3a e6 20 81 b8 08 0a e2 3a
       0.0025971923 0.0016440486 -6.157327e-05 0.0017245421
000020 4f 5b c0 3a fd a2 33 3b 8f 02 3e bb 3b 72 bc 3a
       0.001467565 0.002741038 -0.0028993224 0.0014377305
000030 1d 17 e9 3a 12 0e b9 38 04 97 80 bb b4 5e bb 3a
       0.0017783378 8.824108e-05 -0.0039242525 0.0014295192
000040 c1 43 1b bb 21 12 3c 3b 42 e6 f9 3a fb a5 c7 3b
       -0.0023691508 0.002869733 0.0019065815 0.0060927845
000050 c4 ad da ba 13 5f 6a bb 77 83 3f bb e9 09 43 bb
       -0.0016683866 -0.0035762235 -0.0029222646 -0.0029760546
000060 02 73 6f bb e1 e6 05 ba 3b 0d d7 3a 36 99 77 ba
       -0.0036537056 -0.0005107951 0.0016407141 -0.00094451325
000070 23 7b d4 3a 43 8e b1 3b 42 d5 9f ba 5d 99 13 bb
       0.0016211014 0.0054185702 -0.0012194293 -0.0022521832
000080 57 59 02 bb f5 4d 6b 3b 99 9e 1c bb ad 23 90 3a
       -0.0019889676 0.003590462 -0.0023898243 0.001099696
000090 51 d0 01 bb 10 cf c9 ba cd 24 5b 3b 89 e5 44 3b
       -0.0019808004 -0.0015396792 0.0033438683 0.003004404
0000a0 91 ba a4 ba 1a d5 3a 36 88 3b 65 3b 22 90 08 bb
       -0.0012567808 2.7840201e-06 0.003497811 -0.0020837863
0000b0 88 f8 7f 3a 23 a7 d0 ba 00 db 26 3b 21 8c 30 bb
       0.0009764512 -0.0015918951 0.0025460124 -0.0026938992
0000c0 ff 23 3e ba 96 56 4e ba 16 52 15 bb 22 da d1 ba
       -0.00072532886 -0.00078711787 -0.0022784523 -0.0016010443
0000d0 dc ed b5 3b df 9f 28 bb 09 ff c3 3a 54 05 e2 3a
       0.0055520367 -0.0025730056 0.0014953326 0.001724402
0000e0 db e3 31 bb b4 42 e0 ba bf 9b 84 ba 65 96 04 bb
       -0.002714387 -0.0017109723 -0.0010117217 -0.0020231244
0000f0 3d 53 0c 3b a8 ae 72 3b 0c ae d0 3a cd 25 36 bb
       0.0021411919 0.0037030373 0.0015921011 -0.0027793527
