src/controllers/intersecions_with_avoidance/models/mlp_left_100_3c.pth (torch, 955772 bytes, 7 tensors)

cls.0.weight f4 [256, 768]
000000 d9 4e 38 3d eb 2b 03 bc ff 55 96 3c a7 52 6f 3c
       0.04499707 -0.008006076 0.018351553 0.014607108
000010 ba 73 24 3a 18 34 c7 bc 1d a2 2c 3c c9 44 c3 bc
       0.0006273348 -0.024316832 0.010536698 -0.02383651
000020 33 e8 49 bc dc 8a a0 3c bb 9e 72 3c 7e 7b 07 3c
       -0.012323427 0.019597463 0.014808352 0.008269189
000030 d3 aa 93 3b c8 eb 82 3c 6d 8c d2 bc c9 71 d1 bb
       0.004506448 0.01598157 -0.025701726 -0.006391738
000040 04 c2 0e 3a 65 6c 4e 3c b0 01 ec 3c 25 d6 eb bb
       0.00054457807 0.012599085 0.028809398 -0.007197159
000050 52 a6 8d bc 28 48 d0 3c 7b 9a 08 bd c9 36 80 ba
       -0.017291222 0.025425032 -0.03335045 -0.0009781952
000060 03 35 84 3c cd ec 12 bc 44 ec 0e 3d df 3e 4e bc
       0.01613856 -0.0089675905 0.03489329 -0.012588232
000070 fc b4 1b 3d 2c 1f a9 bc 55 cc 0a 3c cd 08 46 bc
       0.038014397 -0.020644747 0.008471568 -0.012087059
000080 7f 1a 47 bc 0d b2 9d 3c 7b bb ba bb 33 c2 2e 3d
       -0.012152313 0.01924994 -0.005698619 0.04266567
000090 42 0c 19 bc bc 02 8e 3a 51 8d a3 3c ac 41 bd 3c
       -0.009341301 0.0010834555 0.019964846 0.023102604
0000a0 ec bc 89 3b 1c 7a 52 3c 16 ae c7 3c 44 9d bb bc
       0.0042034294 0.012846496 0.024375003 -0.022902139
0000b0 32 f8 24 3c ab 98 e8 bc ee 3e 9e bc db da 67 bc
       0.01006894 -0.02839311 -0.019317117 -0.0141513
0000c0 ca 17 ae 3b 32 09 e6 3c 5b 2f 8b 3d f9 a7 4e 3c
       0.0053128945 0.028080557 0.06796142 0.01261329
0000d0 8f 72 f6 3b 7a 44 f3 b9 2a 3e 9e bc 7a c1 35 bd
       0.0075209807 -0.0004639959 -0.019316752 -0.044373967
0000e0 3d 39 95 3c 10 67 96 bc c6 31 4b bc 9e 45 85 bc
       0.01821577 -0.01835969 -0.012402004 -0.016268548
0000f0 09 6a ae bc b0 65 11 3b 24 51 ab bc 9f b1 28 3c
       -0.021290796 0.0022185855 -0.020912714 0.010296254
000100 38 ed e2 bb 08 78 e9 bc 9f 18 df bc 02 59 96 bc
       -0.0069252513 -0.028499618 -0.02723342 -0.01835299
000110 c7 3c f0 3b 36 9e 06 3c d1 70 a8 bc 94 88 60 bd
       0.007331464 0.008216431 -0.020561608 -0.05481775
000120 c1 fc df bc 61 21 58 bc c7 e8 05 3d 64 ef 2a 3c
       -0.027342202 -0.013191552 0.032692697 0.010433052
000130 db f7 a8 bc 33 bb 0e bd 5b 6c b1 bc f5 e5 a6 bc
       -0.020626 -0.034846496 -0.021658113 -0.020373324
000140 b0 dd 4c bd c9 f5 c6 bc 07 06 ac 3c c6 a2 b3 bc
       -0.050016105 -0.024287121 0.020998968 -0.021928202
000150 66 af c7 37 b3 eb a9 3c 17 1e 8c 3b 9f 22 51 ba
       2.3804325e-05 0.020742273 0.004276048 -0.0007977876
000160 f2 26 90 bc d2 cb 89 bc d0 84 97 bc 94 ee 90 ba
       -0.017596696 -0.016820822 -0.018495947 -0.001105743
000170 5e 53 d8 bc 8e d5 86 bc f2 99 c5 3c ef 98 30 bb
       -0.02640694 -0.016459253 0.024121258 -0.0026946624
000180 6d e5 10 bb 1e bb 81 ba 8e 1b 88 bb 9c 85 d8 bc
       -0.0022109405 -0.0009897684 -0.0041536754 -0.026430897
000190 42 cf 65 3c 52 bc 3a 3c 11 15 25 3c 39 c4 8c bc
       0.014026465 0.011397438 0.010075823 -0.01718341
0001a0 0c a5 ad bb 92 df 08 3d de 43 22 3d 4a 42 8f 3b
       -0.005299216 0.03341634 0.039615504 0.004371916
0001b0 1c a7 7f 3b 0f 5c 2d bd e2 f8 18 bd 0f 90 a4 3c
       0.0039009517 -0.042324122 -0.03734673 0.020088224
0001c0 0c c5 6f bd 9b 54 1e 3d 66 24 82 3c 6f a0 37 bc
       -0.058537528 0.038654905 0.015886497 -0.011207684
0001d0 9b 43 c3 bb 08 d5 ce bc 50 2b 51 3c 49 6b 97 bc
       -0.005958987 -0.025248066 0.012766674 -0.018483775
0001e0 b2 1e 74 3c 03 a4 48 3c ea a7 f4 3c 2c 5f ff 3c
       0.014899896 0.012246135 0.029865224 0.031173311
0001f0 db 17 87 3c f6 aa b7 bb 4c d7 05 bc 8d a0 8a 3c
       0.016490867 -0.005605097 -0.008169007 0.01692226
000200 cc fe 4a bd bb c7 cb bb 2f 67 c8 bb fe 5f 4d 3d
       -0.0495594 -0.006218878 -0.006115816 0.050140373
000210 6a b0 e0 bc 40 7a f8 3c 5f 75 93 bc 88 c3 53 3c
       -0.02742787 0.03033173 -0.018000303 0.012925036
000220 db 1f 4f 3c df a5 96 bc a2 53 ed 3b 34 a8 6f 3c
       0.012641872 -0.01838964 0.007242636 0.014627505
000230 dd 8b d1 bc 57 bf 8e bc 00 c4 12 bc 90 a2 ec 3c
       -0.025579387 -0.017425222 -0.008957863 0.02888611
000240 22 9b 35 bb be 0d 9a 3c a7 c4 9e bc bc 2c 18 bd
       -0.0027710875 0.01880538 -0.01938088 -0.037152037
000250 55 c0 9e 3c 03 b9 c7 bc 7d 93 b2 bc 68 c2 24 bc
       0.01937882 -0.024380213 -0.021798844 -0.010056116
000260 89 1d 5c 3c 3d ff 2b bb 9d ee 90 bc 9d 6e b5 bc
       0.013434776 -0.0026244663 -0.017691905 -0.022147471
000270 70 09 bc 3b 34 63 6c 3c 8d b2 2b bd 45 9f 6a bd
       0.0057384297 0.014427949 -0.041918326 -0.057280798
000280 ce 5c e9 3c 6e ad 0f 3b 13 94 98 3c 8c 95 0e bd
       0.028486636 0.002192344 0.018625295 -0.034810588
000290 52 2c 38 3c 0c bf f3 bc b9 7d 9c 3c ad 33 21 3d
       0.011241036 -0.029754184 0.019102918 0.039355922
0002a0 15 28 98 3c cb c8 04 bc e1 d3 cb bc 7e c3 ef 3c
       0.0185738 -0.008104513 -0.024881305 0.029268023
0002b0 c6 3a 04 3d 7a 4f 00 bb fe 92 93 bb 4e 08 08 bc
       0.032282613 -0.0019578622 -0.004503607 -0.008302761
0002c0 56 b3 24 ba 14 75 8b bc d8 59 cf 3c 09 35 01 3c
       -0.00062828267 -0.0170236 0.025311396 0.00788618
0002d0 3f 3a d8 3c 3e 18 b0 3c a5 cd 19 3c 44 59 62 3c
       0.026394961 0.021495935 0.009387408 0.013815228
0002e0 ad e4 83 bc 24 34 02 3d 0f 88 85 bc 15 90 24 bd
       -0.016100252 0.031788006 -0.01630023 -0.04017647
0002f0 ee 8d 89 bc ef 54 e5 bc 7b 9b 88 3c 5b ef e5 3c
       -0.01679131 -0.027994601 0.016675701 0.028068235
000300 d7 14 47 bd 27 d7 99 3c a9 b4 3e bc 14 85 9e bc
       -0.04860386 0.01877935 -0.011639752 -0.019350566
000310 ef e8 1b bc 24 56 56 3d 3c 77 02 3c 26 cd ac bc
       -0.009515985 0.052328244 0.007962998 -0.021093916
000320 86 84 1b 3d ee b3 1d 3d e6 8d 0d bc ad e9 b4 3c
       0.03796818 0.038501672 -0.008639788 0.022084082
000330 64 db ee 3b 41 d3 ec bc 2b e2 02 3d f7 f6 0c 3c
       0.007289337 -0.028909327 0.03195397 0.008603803
000340 6f ed b4 bc d0 3c 91 bc ea 22 5c 3c 8d 00 12 bd
       -0.022085873 -0.017729193 0.013436059 -0.035645057
000350 05 08 e4 bc 52 fa e0 bb 6b 02 e6 3c b5 34 b8 39
       -0.027835855 -0.006865778 0.028077325 0.00035134485
000360 32 24 41 3b 3c 8f 8c 3a da 4c 71 3c 5a 2e fd 39
       0.0029471037 0.001072384 0.0147277955 0.00048290455
000370 72 97 dc 3c ca 97 b7 bc d3 e5 2c bc 57 1a 00 3d
       0.026927684 -0.022411246 -0.010552841 0.03127512
000380 1d f4 02 3c b6 9f df 3b f4 3f b6 bc 4e a6 d3 bc
       0.007992771 0.006824459 -0.022247292 -0.025836136
000390 94 85 d2 bc 9b 7d 0f 3b 0c 6e 30 3b 91 fe ee bc
       -0.02569846 0.0021894935 0.0026921062 -0.029174121
0003a0 7f c9 46 3b bc 65 fd 3a 0d ce 84 3c dc eb 74 3c
       0.0030332503 0.0019332687 0.016211534 0.014948811
0003b0 17 4e d0 3c 83 e2 58 bb 8c 0a 49 3b af 17 12 3d
       0.025427861 -0.0033093996 0.0030676452 0.035667118
0003c0 c5 9f b6 3c 3c 2c 0c bc b7 44 95 3d 7c 91 97 bc
       0.02229298 -0.008555468 0.07288497 -0.01850199
0003d0 c4 29 ad bc 62 c1 ef 3c be 36 0f 3d 6c 95 bf 3c
       -0.02113808 0.029267017 0.034964316 0.02338668
0003e0 4f e9 de 3c c5 9a ba 3c 52 57 c8 3c 42 8b e6 bc
       0.02721086 0.022778878 0.0244557 -0.028142575
0003f0 47 47 68 3a 8a 9d 97 bc b4 10 1b bd ae 53 99 bc
       0.0008860719 -0.018507738 -0.037857726 -0.01871666

cls.0.bias f4 [256]
000000 8f 30 2d 3b 8a 69 cc bc f0 96 75 3c a3 08 0e 3c
       0.0026426648 -0.024952669 0.0149896 0.008669051
000010 9e 00 87 3c c5 da c8 3c b8 ae 1e 3d 48 d9 c7 bc
       0.016479786 0.02451838 0.038740844 -0.0243956
000020 99 3c 46 bc 32 ff 71 3c 7b 8b b8 3c be 44 64 bc
       -0.012099409 0.014770316 0.022527447 -0.013932405
000030 cd 74 d9 bc 29 27 39 bc 8a 1e 18 3d 4a 47 ae bc
       -0.026544953 -0.01130084 0.0371385 -0.021274228
000040 6d c2 26 bc 16 5d 03 3d ea fb f3 bb 18 d6 e7 3c
       -0.010178191 0.032071196 -0.007445802 0.02830033
000050 6c 66 12 bd e4 6f e0 3c 78 98 9a bc 29 bd d8 3b
       -0.03574221 0.027397104 -0.01887153 0.0066143465
000060 68 3d ee 3b f2 6a 9a 3b 4a 78 3b bd 8e 94 41 bd
       0.007270504 0.004712456 -0.045769013 -0.047260813
000070 87 7a 43 bc 28 e1 7e bc a6 65 95 bb 03 04 79 3d
       -0.011931068 -0.015556611 -0.0045592366 0.06079484
000080 9a b0 08 3d be f4 bf 3c 57 75 bb 3c 02 c9 19 bc
       0.033371545 0.023432132 0.0228831 -0.009386303
000090 7f 16 56 3c b4 52 71 3c 34 d3 64 3c 5d 4d 0d 3b
       0.013066887 0.014729191 0.01396637 0.0021561005
0000a0 9f af f2 bb 48 79 8a bc ec a4 d1 3b 31 d9 09 3c
       -0.0074061896 -0.016903535 0.006397834 0.008413599
0000b0 e6 58 d4 bb 59 30 22 bc a8 b3 cf 3b e3 30 7b 3c
       -0.006480324 -0.009899222 0.0063385554 0.01533148
0000c0 8a 2a 42 bc 58 27 1e 3c a6 dd 76 bb 6e 02 7e 3d
       -0.011850962 0.009652935 -0.0037668734 0.062014036
0000d0 a7 a0 61 3c 83 08 1e 3c f3 88 42 3d 67 6a b1 bb
       0.013771213 0.009645584 0.047493886 -0.0054142955
0000e0 61 4c 37 bc fb 9e 30 bd 21 74 b5 bc 7c 22 68 bc
       -0.011187644 -0.043120366 -0.022150101 -0.014168378
0000f0 4f c5 e6 3c 5e 42 14 bc c8 1d 89 3c 43 b6 fd bc
       0.028170256 -0.009049026 0.016737834 -0.030970698
000100 5a f9 40 bc e8 4a 1b 3b 69 61 4e 3c d1 d1 61 3c
       -0.0117782 0.002369577 0.012596467 0.013782934
000110 c8 84 10 bb ed 04 ab 3b 1f 07 16 bd ee 38 9b bc
       -0.00220518 0.005219093 -0.036627885 -0.018948045
000120 db d0 40 bc 37 76 d3 bc 1a 01 a1 3c 77 75 ff 3b
       -0.011768545 -0.025813205 0.019653846 0.0077959853
000130 ba 90 81 3c 28 3e be bc 1b 36 9e bc 19 5f 51 bb
       0.015816081 -0.023222998 -0.019312909 -0.0031947552
000140 95 36 8d bc 69 96 08 3c 62 84 d4 bb b8 59 9b bc
       -0.01723794 0.008336642 -0.006485508 -0.01896368
000150 6f ad eb b9 a2 79 ed 3c 3b d4 5c 3b 75 d5 3d bc
       -0.0004495191 0.028988663 0.0033695835 -0.011586537
000160 ab dc ba bc 92 68 16 bc c2 1e 05 3d c8 57 d8 bb
       -0.0228103 -0.009180205 0.032500036 -0.006602261
000170 c6 4c 11 bc e9 22 d2 bc 08 36 63 3c c1 39 82 bc
       -0.008868402 -0.025651412 0.0138678625 -0.01589668
000180 e6 94 04 bd 0a d6 ee 3a fa 85 53 3c b0 c5 ec bb
       -0.032368563 0.0018221748 0.0129103605 -0.0072257146
000190 38 47 88 3c ad f1 ef 3c 31 bf ba 3c 65 42 02 3b
       0.016635522 0.029290045 0.022796245 0.0019876
0001a0 4d 04 93 bc 83 ed 4a 3d 66 bd 77 bb 2d 85 62 3c
       -0.017946387 0.049542915 -0.00378021 0.013825697
0001b0 6d 67 f4 3c bb 0b 11 3d d4 dd 68 bc 60 4b 30 3d
       0.029834474 0.035411578 -0.014213044 0.043040633
0001c0 10 64 2d bd b9 f2 2c 3c ab a0 d2 3c f6 41 2e 3b
       -0.042331755 0.0105559165 0.025711378 0.0026589609
0001d0 50 9e c1 bc d9 74 d1 3b e4 ec 26 bd cf dc 1f 3d
       -0.02363506 0.006392103 -0.04075326 0.03902894
0001e0 cd 7f cf bb 96 00 28 3c 45 87 53 3c 96 69 9c bc
       -0.0063323737 0.010254046 0.012910669 -0.019093316
0001f0 71 24 0d bd 3c 2b 8a bc 93 ec c9 bc 5a c4 09 3d
       -0.03445858 -0.016866319 -0.02464894 0.03363452
000200 62 5d 91 bc 63 23 d2 3c c7 34 9a 3c 54 67 b2 3c
       -0.017744724 0.02565164 0.018823994 0.021777786
000210 c2 d3 7e bc 21 9e 1c bb 3d 91 75 bb 7c d1 d6 3b
       -0.015553417 -0.0023897963 -0.0037470602 0.006555734
000220 de 97 e6 bb 70 30 38 3c c1 20 ff bb b1 fd 01 bd
       -0.007037147 0.011242017 -0.007785887 -0.03173608
000230 64 03 68 ba dc b8 c6 3c 75 7c 94 3c a4 5a 9b 3c
       -0.0008850603 0.02425807 0.018125752 0.01896412
000240 27 9f 5c bd 1c 18 81 bc d0 e4 26 bc 57 f3 cd bc
       -0.053862717 -0.015758567 -0.010186389 -0.025140448
000250 48 fa c9 3c 16 1a 02 bc 9d a3 c7 3c 56 13 dc bb
       0.024655476 -0.00794079 0.02437001 -0.006716172
000260 71 fd 10 3d 2c e8 83 3c 8b 09 f0 bb 2c b9 a1 3c
       0.03539795 0.01610192 -0.0073253564 0.019741617
000270 73 2e 0d bd 63 22 c9 3b 5a 0f 6e 3b a9 98 12 bd
       -0.034468126 0.0061381324 0.0036325068 -0.03579012
000280 70 97 cc 3b 91 e3 8a 3c 3f 5e 84 bc f8 2e 1f 3d
       0.0062436387 0.016954215 -0.016158221 0.038863152
000290 50 3f e8 bb f1 ea fe bb 4e 3f 48 bc 56 b9 98 3c
       -0.0070876256 -0.007779472 -0.012222124 0.018643063
0002a0 3d d7 c6 bc d4 88 e3 ba ff 66 2d 3a c3 d8 cb 3c
       -0.024272555 -0.0017359504 0.0006614774 0.024883633
0002b0 a5 42 14 bb 3d 17 3f 3b c6 ea fc bb 05 c1 85 3c
       -0.002262273 0.0029158138 -0.007718417 0.01632739
0002c0 5c 6c c5 bc 25 96 d5 3c d0 2c 99 3c f8 13 1d bc
       -0.024099521 0.026072571 0.018698126 -0.00958728
0002d0 57 38 5c 3c 75 fa 22 bd b1 b7 46 bc e6 9e 16 bc
       0.013441167 -0.039789636 -0.012128756 -0.009193158
0002e0 16 7e 1f bc ca 20 52 3d 29 85 92 bb 7c db 28 bd
       -0.009734651 0.0513008 -0.0044714403 -0.04122494
0002f0 8d 42 60 3c 98 46 91 bc 9d cc 6f 3c 2a a8 b6 bc
       0.013687742 -0.017733857 0.014636186 -0.022296984
000300 28 2b 89 3a d3 23 05 3d a4 d6 ca 3c 50 34 07 bd
       0.0010465132 0.032504868 0.024760552 -0.033008873
000310 70 85 b5 bc 7c ef ad bc e6 5c 1d bc 6b 42 df bc
       -0.022158355 -0.02123236 -0.009604668 -0.02725335
000320 cf c9 04 3d 20 3a 5e bc 37 e6 24 3c f4 ce 8c 3c
       0.032419022 -0.013563663 0.010064653 0.017188527
000330 5f fd e7 bc 60 5e 20 3d 8b 50 0b bd f5 ea 09 bd
       -0.028319059 0.039152503 -0.03401236 -0.033671338
000340 ef 1e a2 3c 99 31 db bc 04 d2 b6 bc fc 6b 72 39
       0.01979014 -0.026757048 -0.02231694 0.00023119146
000350 50 8e 4a bd 73 60 e7 bb a9 17 a9 3b 51 f7 96 3b
       -0.049452126 -0.007061058 0.005160291 0.004607119
000360 3f b1 88 3c 44 50 9e 3b e4 f8 56 3b 8e d8 de bb
       0.01668608 0.0048313458 0.003280216 -0.0068007177
000370 ba a5 92 3c 3d 96 23 bd b7 2f 44 bc 6f e1 83 3c
       0.01790129 -0.0399382 -0.011974267 0.016098706
000380 1a 39 32 ba c6 11 8e 3c 40 3f a3 3c ca 03 0d 3c
       -0.000679867 0.01734246 0.01992762 0.00860686
000390 7b d0 d4 bc 9f 24 c3 3c d8 d9 e6 3c 40 f8 3c bc
       -0.025978317 0.023821173 0.028180048 -0.011533797
0003a0 5b 59 08 bd e9 72 bf bc 32 ec eb 3c 31 a0 e8 bc
       -0.03328834 -0.023370223 0.02879915 -0.028396698
0003b0 09 02 1d 3d b7 61 c6 bc ae 5f 37 bc 7f ca 2d ba
       0.03833202 -0.024216516 -0.011192245 -0.00066296005
0003c0 08 b1 f8 bc 10 a6 be bc 86 1a 11 bd b0 8d b0 bc
       -0.030357853 -0.023272544 -0.035425685 -0.021551937
0003d0 af 9c 6e 3b fe f3 28 bd 4f a9 1b bd 24 bd 2e 3d
       0.0036409309 -0.041248314 -0.038003262 0.042660847
0003e0 5e 53 c8 3c 02 1e 1c 3d 1b 02 03 3b 12 4f 0d bd
       0.024453815 0.038114555 0.0019990269 -0.034499235
0003f0 2b 44 2d 3c 0f ca 5a bc cf aa 21 bc cf ba c5 3b
       0.010575335 -0.013353839 -0.009867384 0.006034232

cls.3.weight f4 [128, 256]
000000 31 20 f1 bb 8a 1b 12 ba 21 9d 46 3d 56 c6 05 3d
       -0.007358574 -0.00055735616 0.048489694 0.03265985
000010 55 64 23 3d de 6d e3 bc 8f 59 c1 3c 48 f8 be bc
       0.039890606 -0.02776235 0.023602275 -0.02331175
000020 81 89 11 3d d8 b3 6e bd 9f 9a 83 3d cc ba 95 3b
       0.035531525 -0.05827698 0.06425976 0.004569387
000030 22 f5 83 3c 79 cf 9a 3c 97 d2 4d 3c e6 a0 97 3d
       0.0161081 0.018897759 0.012562416 0.07403736
000040 e0 52 a1 bb 8f fa d9 bc ea cf 67 3d 5b 4c 8f 3d
       -0.0049232095 -0.026608733 0.056594767 0.069969855
000050 2b a4 f0 3c f3 d4 3b 3d 92 dd 82 3c 20 17 d7 bb
       0.029375156 0.04585738 0.015974794 -0.006564036
000060 e0 bf 32 3d 98 f9 35 bd 0c f2 4c 3b 31 9f cf bc
       0.043640018 -0.044427484 0.00312722 -0.025344463
000070 d3 f4 44 bd c4 22 34 bd 1a 01 f9 bc b0 24 45 3d
       -0.048085045 -0.043978468 -0.030396033 0.04813069
000080 18 ab 96 3d 4b f9 06 bc 39 8b a5 3c 90 4c f7 bb
       0.07356852 -0.008238147 0.020207988 -0.0075469688
000090 fc 76 51 bc 84 8f 34 bd 08 1a eb 3c fe 0f f0 39
       -0.012784716 -0.04408218 0.028698936 0.00045788282
0000a0 cf ec 53 bc 3c e2 89 bd 06 fe 1c bd ca 01 6e 3c
       -0.012934878 -0.06732604 -0.038328193 0.014526794
0000b0 e4 7c 5d bc e5 13 ea bb 50 5f 15 bd 74 e5 e9 3c
       -0.013518546 -0.007143485 -0.03646785 0.028551795
0000c0 f2 bd d7 bc fa 89 52 bc 54 c4 3f 3d 17 2c 27 bd
       -0.02633569 -0.012850279 0.046818092 -0.04081353
0000d0 83 3f fb bb 0e 59 cf bc 35 0b a3 3a ab 6f a0 bc
       -0.0076674833 -0.02531102 0.0012439253 -0.019584497
0000e0 0b f4 39 bd 1f 01 12 bd c7 54 bc bb 53 54 2d 3d
       -0.045398753 -0.0356456 -0.005747411 0.042316746
0000f0 77 a2 63 3d 92 fb 04 3d 54 db 3a 3d 8a 8c 48 bd
       0.05557486 0.03246648 0.045619324 -0.048962153
000100 a9 e6 e6 38 9a d6 1e 3c c0 60 2e 3c 14 d5 0d 3d
       0.000110102184 0.00969472 0.010643184 0.034627035
000110 c9 79 a8 ba 31 63 9b 3a 33 12 1f bb b0 2a 81 bd
       -0.0012853678 0.0011855123 -0.0024272322 -0.0630697
000120 ab 1f aa 3c b3 83 4d 3b fa cc 1f bd 3f 31 1c bd
       0.020767054 0.0031359016 -0.03901384 -0.038132902
000130 d4 8b 5e bd 77 5a a3 bc 65 6b 92 3c 4d 15 f7 3c
       -0.05433257 -0.019940598 0.017873475 0.030161524
000140 25 34 3d bd 5d 4f 39 3d f4 f3 0b bc c9 b5 91 3c
       -0.046192307 0.045241702 -0.00854205 0.017786877
000150 99 12 85 3c 5d 7e 62 bd b6 d8 40 3d c6 9b 6b bb
       0.01624422 -0.05529629 0.04708167 -0.0035951003
000160 76 6f 9f bc cf 51 97 bd 11 4f 08 3d c8 cd e8 bc
       -0.019462328 -0.073886506 0.03327853 -0.028418437
000170 b5 dd 59 bc b4 44 07 3d 94 c0 c6 bc 15 da 96 3c
       -0.013297488 0.033024505 -0.02426175 0.018414536
000180 34 fd 18 bd ff ac df bc 34 1b 60 bc 9c ba 12 3d
       -0.03735085 -0.02730417 -0.013678361 0.035822496
000190 1b 56 c1 bc 76 5e 1a bd f3 67 8f bd 45 8a e3 bc
       -0.023600629 -0.03768774 -0.070022486 -0.027775893
0001a0 2d 36 ff 3c cf 08 d5 bc 89 36 12 3c 2e 45 bd 3c
       0.031153763 -0.026005177 0.008924135 0.023104277
0001b0 73 32 88 3c 01 12 9d bc 98 d8 6a bd 0a ff 00 3d
       0.016625619 -0.019173624 -0.057335466 0.031493224
0001c0 29 34 93 bc fe 6e 3b 3b dd 9a 91 bd 73 65 11 3d
       -0.017969208 0.0028600092 -0.07109616 0.03549714
0001d0 d6 14 4d 3c 74 96 e4 3c db 2c ff 3c 03 59 1c 3c
       0.012517175 0.027903773 0.031149318 0.009542706
0001e0 8e e8 4b bd 7a 36 19 3d e7 1f 61 bc 38 be 20 bd
       -0.04978233 0.03740547 -0.013740516 -0.039243907
0001f0 c6 e5 a1 3d b3 bf 2d 3d 2b 90 a7 3d 36 99 b6 bc
       0.07905154 0.042419147 0.08181795 -0.022289854
000200 02 b7 83 bc fa b2 d6 3b 09 be 06 bc d9 0b 96 bc
       -0.016078476 0.0065520974 -0.008224019 -0.018316196
000210 98 72 ed 3c 5c c8 1c 3d 12 07 11 3d 59 11 37 3c
       0.028985307 0.038277015 0.035407133 0.01117357
000220 ba 9f 19 3d 2c bf 9e bb 16 04 8e 3d fc 0a 24 3d
       0.037505843 -0.004844567 0.06934373 0.040049538
000230 d9 1e b9 bc a8 fd 61 3d 3f 68 14 bd cc f2 fc 3b
       -0.022597717 0.055173546 -0.03623223 0.0077193733
000240 13 53 18 bd 00 90 08 bd bb 38 59 3d 00 de 4a 3d
       -0.0371886 -0.033340454 0.053032618 0.049528122
000250 6b 1d 8e bc 38 4d 00 3d 1c b7 27 bc 8f 6e 92 3a
       -0.017348012 0.03132364 -0.010236528 0.0011171865
000260 6f 7f 49 bb 33 66 a4 bd e0 aa 4b bd b5 fb a5 3c
       -0.0030746122 -0.080273055 -0.049723506 0.020261625
000270 c2 b4 c3 3c 70 6d 09 3c b3 8c 72 3d a4 c1 65 3d
       0.023889903 0.008387908 0.059216212 0.056092873
000280 4d 03 87 bc 91 1d 56 bd be 0f 00 bd 10 87 85 bd
       -0.016481066 -0.05227429 -0.031265013 -0.06519902
000290 81 cd 5a 3b 77 a9 c3 bb b4 2b 12 bd 50 80 b7 3c
       0.003338665 -0.0059711295 -0.03568621 0.022400051
0002a0 88 a1 de bc 63 f2 d8 3a 74 3b 33 bd e2 4d 75 bb
       -0.027176633 0.0016551729 -0.04375787 -0.0037430455
0002b0 90 04 d7 bc 4e 64 2e ba 62 f5 40 3c cc ce ac bc
       -0.026247293 -0.000665252 0.011777254 -0.021094702
0002c0 04 f7 8f 3b d8 a1 f6 3c 64 82 92 3d 79 85 36 3c
       0.00439346 0.03010647 0.07153776 0.011140221
0002d0 a7 fc 2a bd d3 1a cf bc f7 3a 2e 3d 3f 95 62 bc
       -0.041744854 -0.025281345 0.042536702 -0.013829528
0002e0 cc 06 dd bc c3 67 ec 3c c2 5a 8e 3d e8 9b 2b 3c
       -0.02698078 0.028858071 0.069509044 0.010474183
0002f0 3f 83 d3 3c 69 3b db 3b 25 f9 04 bc c6 5b 6f 3d
       0.025819419 0.006690432 -0.008116041 0.05843713
000300 de 9c 6f bd 54 03 ca bb a2 43 6c 3d 27 2f fb bc
       -0.05849921 -0.0061649475 0.057681687 -0.030662132
000310 ce 1b 5b 3d ae f5 1e 3d 96 5a d6 bb b9 23 40 3d
       0.053493313 0.038808517 -0.0065415604 0.046909068
000320 ec 25 4f bd 2c e7 ce 3b 03 62 34 3d 33 12 d9 3b
       -0.050573274 0.006314179 0.044038784 0.006624484
000330 67 48 95 3d 5f e1 a3 3c a3 1c 8f bc db 2d 85 3c
       0.072892 0.020004926 -0.01746971 0.016257217
000340 7f 4e 71 3c 72 7e 25 3d 94 39 8e 3b 90 ef 27 3d
       0.014728188 0.04040379 0.00434036 0.04099995
000350 79 71 85 3c 5d 35 13 bc 40 4d 05 bd 5a ef 81 3b
       0.01628946 -0.008984891 -0.032544374 0.0039653005
000360 d4 30 20 bd 58 87 69 bd 4d ae f5 3c 7f 98 e9 bc
       -0.039109066 -0.05701384 0.02999034 -0.028515099
000370 6a 85 36 bd 21 10 3b bd 04 fc c5 3c 86 14 4c bd
       -0.044560827 -0.04566968 0.024168022 -0.04982426
000380 b2 d9 ba bc bd 85 52 bc c8 33 ed 3c bd f7 28 bd
       -0.022808883 -0.0128492685 0.028955355 -0.041251887
000390 74 bc b9 3a d4 77 a5 3d 35 5a cf bc 10 da ba bc
       0.0014170543 0.08079496 -0.025311569 -0.022809058
0003a0 d8 14 f5 3c ca ae 01 bd 19 53 0d bd 42 17 98 bb
       0.029917166 -0.031660832 -0.034503076 -0.0046414444
0003b0 fe d8 3a 3d a3 0d cb 3c 3e 68 0f bd 55 13 b3 ba
       0.045617096 0.024786776 -0.035011522 -0.0013662378
0003c0 4c 1b 9f bc 4d 9f 05 3d 86 f0 24 3d 6e d6 1c 3c
       -0.019422196 0.032622624 0.040268444 0.009572608
0003d0 4a 16 72 bd cd c3 df 3c ab 22 3b 3d 95 ac 5f 3c
       -0.059103288 0.027315045 0.04568736 0.013651987
0003e0 c7 cb 41 3d f7 81 17 bd 20 ac 88 bc 9a 18 76 3c
       0.047313478 -0.03698918 -0.016683638 0.015020514
0003f0 09 29 40 3d 0a f9 e9 3c a3 7e f4 bc 27 0b d2 bc
       0.046914134 0.028561134 -0.029845541 -0.025640083

cls.3.bias f4 [128]
000000 34 e9 4d bc 83 1c 74 bc 34 af 27 3c c1 2d 2e bd
       -0.012567807 -0.014899376 0.010234643 -0.042524103
000010 d6 8a 8e 3c a0 48 2a bd 64 a7 08 bd 2b b7 84 bd
       0.017400187 -0.041573167 -0.03336276 -0.06480249
000020 40 f2 5a 3d 87 9c b6 bc 6b 18 76 bd b8 f3 85 bd
       0.053453684 -0.022291435 -0.06008188 -0.06540626
000030 9a 29 2d 3d a9 ee 45 bd 67 36 09 3d a4 5a e2 3c
       0.042276002 -0.048323307 0.033499148 0.027631111
000040 b2 ba b8 bc a3 84 20 3c 4e b1 28 bd 84 68 4f 3b
       -0.02254996 0.009797248 -0.041184716 0.003164799
000050 e9 8f 9f 3c e1 f0 4e bd 22 9a 8e 3c b0 6d 24 bd
       0.019477801 -0.05052269 0.01740748 -0.04014367
000060 0e 7b 1d bd e7 92 6d 3d 54 0b 10 bd 17 08 7f 3d
       -0.038447432 0.058001425 -0.035167053 0.062263574
000070 3f ec 52 3c ae b2 0f 3d 9b 57 0c 3c 29 1b 56 3d
       0.012873708 0.03508251 0.008565809 0.052271996
000080 6f dd d7 3c 00 e5 a6 3c dd 51 86 3d d7 c6 15 bd
       0.026350705 0.020372868 0.06558583 -0.03656658
000090 30 79 41 3d 3d 61 46 b9 3e db cf 3c 2b 19 1f bd
       0.047234714 -0.00018918976 0.025373098 -0.03884236
0000a0 2d c3 63 3d 61 54 10 bd 2d d2 f9 bc 7a 5e 46 3d
       0.055606056 -0.03523672 -0.030495727 0.048429944
0000b0 3d 7d 04 3d 1b 6e 3e bd 58 b4 77 3d b7 08 0c ba
       0.032346 -0.046491724 0.060474724 -0.0005341875
0000c0 1e 10 4d bd 32 76 8f bd 09 b7 c4 bc f4 20 30 3d
       -0.0500642 -0.07004966 -0.02401306 0.043000177
0000d0 d2 20 68 bd fe 52 c2 bc 7f a6 b0 3c 05 e7 00 3d
       -0.056671925 -0.023721214 0.021563767 0.031470317
0000e0 11 a6 d0 3c 68 0e 82 3d 07 94 0c 3d d8 39 3c 3d
       0.025469812 0.06350404 0.034320857 0.0459536
0000f0 c3 d4 42 3d 84 4c 84 bb 12 79 56 3c e3 7e d6 bc
       0.047566187 -0.0040374417 0.013090389 -0.026183551
000100 65 d0 21 3d f0 85 92 bb f5 3b 05 3d 92 51 95 bd
       0.03950538 -0.004471533 0.032527883 -0.07290949
000110 88 06 35 bd e7 2c fa bb 62 73 0b 3d 8f db 8a bd
       -0.04419568 -0.0076347473 0.034045584 -0.06780159
000120 5c 2a 1b 3d 25 5e a7 3c 01 f8 a1 3c 7e 81 8a bb
       0.037882194 0.020430634 0.019771578 -0.0042268625
000130 ae 81 03 bd 1c 1f 11 bc 87 00 47 bd f4 11 c2 3c
       -0.032106094 -0.008857515 -0.048584487 0.023690201
000140 1b f2 83 3c 73 43 d2 bc da 80 35 3d 40 f3 9d bc
       0.016106656 -0.025666928 0.044312336 -0.01928103
000150 b5 60 67 bc 71 40 e3 3c 83 2a c7 3a 9c 31 8d bb
       -0.014122178 0.027740689 0.0015195165 -0.0043088924
000160 ce 7c 33 bb b6 8e 0d bc 0a f0 89 bc 25 fb 12 3d
       -0.0027387622 -0.008639982 -0.016838092 0.03588404
000170 a2 b2 9d bc 8c 9c 4f 3d f1 60 2b 3d 52 a0 49 3d
       -0.019250218 0.050686404 0.041840497 0.04922516
000180 c7 5c b3 bb 1f fe 49 3c 4b 15 39 3d f9 f2 b7 bc
       -0.0054737064 0.012328654 0.045186322 -0.022454726
000190 57 f0 be bc 98 3b d5 bb ee 56 1c 3c 0d 98 ea 3b
       -0.023307962 -0.0065073483 0.00954221 0.007159239
0001a0 6d 72 89 3c e3 04 28 bd 5a 89 4e 3d c4 04 33 3d
       0.016778195 -0.041020285 0.050423957 0.043705717
0001b0 25 13 52 bd 53 47 0d bd a8 54 a2 bc 84 ab 6c 3c
       -0.05128779 -0.03449185 -0.019815758 0.014445189
0001c0 74 74 33 bd 62 3b c5 bc c4 ad e6 bc 39 2e 8c bd
       -0.04381223 -0.024076167 -0.02815903 -0.06844754
0001d0 54 58 23 3d 3b b5 6f bd 4c 60 46 bd 6c f6 36 bd
       0.03987916 -0.058522444 -0.04843168 -0.0446686
0001e0 0d 63 7d 3c c8 e2 53 3d 71 1c 89 bd e8 6d 67 3d
       0.01546551 0.051729947 -0.06694878 0.0565013
0001f0 a6 9e 25 3d 5e 51 d0 3c eb 52 42 bd eb 00 85 bc
       0.040434502 0.025429424 -0.047442358 -0.01623579

cls.6.weight f4 [64, 128]
000000 bb fd 30 3c 81 9d 6e bd 0f a0 44 bc 29 0b 86 3d
       0.010802682 -0.058255676 -0.012001052 0.065450974
000010 87 6e d5 3c fa bd a9 bc 9e b6 8f bd 0a b6 f2 3c
       0.02605368 -0.02072047 -0.07017253 0.029627819
000020 90 36 a6 3d 05 eb 33 bd 82 bd b6 3b 37 e0 07 3d
       0.08115876 -0.043925304 0.0055767903 0.033172812
000030 49 72 26 bd 55 19 56 bc 13 f9 9b 3d 55 a5 18 bd
       -0.040636335 -0.013067563 0.076158665 -0.037267048
000040 33 2f 39 bd 4b e1 f9 3c 7f 28 a5 3c b4 f6 b5 3d
       -0.04521103 0.030502936 0.020160912 0.088849455
000050 b4 0a cf 3c a8 16 90 bd a0 ac 72 bd 6c 79 6e bc
       0.025273658 -0.07035571 -0.05924666 -0.014555316
000060 14 02 41 3d aa 47 50 3d 98 1e 84 bd b1 af 05 bc
       0.047121122 0.050849594 -0.06451148 -0.008159564
000070 52 c1 8d bb 93 1d 1f 3d 7e 82 02 bb fd a5 60 bd
       -0.004326024 0.038846564 -0.0019914205 -0.0548458
000080 3c d9 76 bd 51 80 15 bd 8a 99 0c bd 56 9d 8e 3b
       -0.060265765 -0.036499325 -0.034326114 0.004352252
000090 89 cb b5 3d ba 09 90 bc 72 d9 d7 3b 47 e6 fb 3c
       0.08876712 -0.017582763 0.006587201 0.030749453
0000a0 3f 3d 92 3c 80 fd 67 3d a4 b2 c1 bc 2a 7a e4 3c
       0.01785147 0.05663824 -0.023644753 0.027890284
0000b0 20 32 64 bd 15 ae d7 3c ba ab 04 bd dd e6 f5 3c
       -0.055711865 0.026328126 -0.032390334 0.03001731
0000c0 bc 8f 97 3c 9c 33 92 bd 38 2d 53 bd 19 21 fb bc
       0.018501155 -0.0713875 -0.051556796 -0.03065543
0000d0 4e 08 6c bc a9 a0 88 bd 29 d8 18 3d 01 48 71 bc
       -0.014406277 -0.066712685 0.03731552 -0.01472664
0000e0 45 a0 18 3a 88 01 8d bb 46 aa 3f 3d 9a a4 20 bd
       0.0005822222 -0.004303161 0.046793245 -0.039219476
0000f0 07 4e b3 3c 52 19 54 3d fe 5d 88 bd 5e 4e b6 3b
       0.021887792 0.05178196 -0.066585526 0.0055635413
000100 67 3b 15 3d 27 db 0e 3d 53 99 6a bd b0 9c 13 3d
       0.036433604 0.03487697 -0.057275128 0.0360381
000110 be 23 75 3d 7f be 3e bd 38 80 c3 3c 1d bf 8d 3c
       0.05984854 -0.04656839 0.02386485 0.017303044
000120 7d 8b 3d bd c7 e8 38 3d bb 00 92 3d 2e a5 a9 bd
       -0.046275605 0.04514387 0.071290456 -0.08283459
000130 32 9d 1e bd 7a a9 8c bd ec 84 21 bd f6 a7 11 3d
       -0.038724132 -0.068682626 -0.039433405 0.03556057
000140 45 49 2e bd 2e d6 8d bd ba 8d a8 bc 92 e0 22 3d
       -0.042550344 -0.06925617 -0.020575393 0.03976495
000150 2d 6a e0 bc 13 b5 96 bd d4 15 7c 3d 3d d8 c9 bc
       -0.027394379 -0.07358756 0.061544254 -0.024639243
000160 7e ac 1b 3d b8 8f 88 3b 2f 53 84 3d 29 6f 9e 3c
       0.0380063 0.0041675232 0.064611785 0.019340115
000170 5a 16 1e 3c b1 71 44 bd 8d c0 20 3d 18 ad 34 3d
       0.009648884 -0.047959987 0.03924613 0.044110388
000180 53 55 01 3d ed d2 2d bd c8 4f 97 3c ab 0a ed bb
       0.031575512 -0.042437483 0.01847066 -0.0072339377
000190 71 41 8a bd 58 d2 60 bd f9 fc 85 3c 21 e3 38 3d
       -0.06750763 -0.0548881 0.016355978 0.045138482
0001a0 d8 01 ea 3c 29 69 55 bd d6 55 da 3c 1b 25 55 3d
       0.028565332 -0.05210224 0.026652258 0.05203734
0001b0 f4 06 e5 bc fb 31 9d 3d 10 9f 26 3c 64 a0 84 bd
       -0.027957417 0.07675549 0.010169759 -0.064759046
0001c0 d2 ac fe 3b 83 62 da 3c 90 f1 69 3d 6f 07 23 bd
       0.0077720666 0.026658302 0.057115138 -0.03980201
0001d0 a2 82 45 3d 9d b2 49 3d fb c4 3d bd 1e 9c 45 3d
       0.048220284 0.049242605 -0.046330433 0.048244588
0001e0 8d af ec 3b 63 30 97 bc c4 3c 9b 3a d4 8f 49 bd
       0.0072230757 -0.01845569 0.0011843671 -0.04920943
0001f0 9a 51 40 3d dc 1f cb bc 78 5a 8e bd 30 de 87 bd
       0.04695282 -0.024795465 -0.06950849 -0.06634176
000200 df 03 37 bd 6d b9 a0 bc f0 7f e1 3d 92 07 24 3d
       -0.044681426 -0.019619668 0.1101073 0.040046282
000210 c5 63 68 bd 36 65 eb 3b 78 44 af 3c 12 af 90 bd
       -0.056735773 0.007183696 0.021394953 -0.07064642
000220 52 a7 c7 bd 4d c5 dc 3d d6 46 3f 3d 55 17 8f bd
       -0.09748711 0.1077982 0.046698414 -0.06986872
000230 89 de 53 bd 4a f3 8f 3d cd 49 ec bd fa 11 3c 3c
       -0.051725898 0.070288256 -0.11537514 0.011478895
000240 ea 1b a1 3d a1 9d 38 bd 58 28 1e 3d 17 ff 6b 39
       0.07866652 -0.0450722 0.038612694 0.00022506375
000250 5d 30 63 3d da cd 5a 3c d0 c7 b0 3b f4 b3 95 3d
       0.055466045 0.013354743 0.0053949133 0.07309714
000260 eb 2f 77 bd 77 9a 13 bd 3c 1b d2 bc 91 cb a0 bd
       -0.060348433 -0.03603598 -0.025647752 -0.07851327
000270 11 9c ce bd 05 e6 a2 bc 36 09 f3 3d 01 45 04 3e
       -0.10088361 -0.019885072 0.11866991 0.12916948
000280 c1 ff 41 bc 62 5e c8 bb 13 d0 e1 3c cf 78 c4 bd
       -0.011840762 -0.006114767 0.027565038 -0.09593355
000290 57 d1 5b 3d 1e 52 06 3e 51 97 a4 3d 71 f3 66 3d
       0.05366644 0.13117263 0.08036674 0.056384508
0002a0 ad c4 75 3d c5 8f 82 3d c2 3b 5b 3d 32 21 ec b8
       0.060002018 0.06375078 0.053523786 -0.0001125954
0002b0 c1 75 e4 3d fe 1c 50 bd 31 03 61 3d 0c 21 01 3e
       0.11155272 -0.0508089 0.054934684 0.12610263
0002c0 7e 34 13 3d 9b be 1f 3b 04 d7 68 bd 90 93 98 3c
       0.035938732 0.0024375084 -0.05684568 0.01862505
0002d0 cd e3 7c 3d b3 0d 0f bd 8f c2 02 bd 39 d2 69 3c
       0.061740685 -0.034925174 -0.031923827 0.014271312
0002e0 0e b6 9d bd fc fb 05 bc ff 2c 01 3d 1f 50 c7 3d
       -0.0770074 -0.008177754 0.031537052 0.09732079
0002f0 05 a3 f1 bc 1c e1 30 bd 7b 51 a1 bd a7 ce d3 bd
       -0.02949668 -0.04318343 -0.07876869 -0.1034215
000300 5e f7 b1 3d a5 b7 24 bd e8 b8 95 3d 36 0f 56 3d
       0.0868976 -0.0402142 0.07310659 0.0522606
000310 61 10 c1 3d 9c 35 f3 bc 43 58 fc bd 6d 62 aa 3d
       0.09426952 -0.029688649 -0.12321522 0.083195545
000320 34 1d 44 bc 92 20 0b 3d 1c a1 11 be e3 9c 24 3d
       -0.011969853 0.03396661 -0.14221615 0.04018868
000330 f3 23 d2 ba 9e 22 f3 3b 2a c6 63 bd 8b 9d 14 3d
       -0.0016032442 0.007419898 -0.055608906 0.036283057
000340 c9 f1 07 3b 25 63 14 bd 6a ab 1c 3d 36 b0 76 bb
       0.002074348 -0.036227364 0.03824941 -0.003764165
000350 0c 08 9c 3c 97 4e 52 3c 4a 16 33 3d e9 df f7 bd
       0.019046806 0.01283612 0.04372243 -0.12103254
000360 11 42 0f bd 77 0f 88 bd 9c 63 5e bd 36 2f 4e 3d
       -0.034975115 -0.06643575 -0.054294214 0.050337993
000370 ca 32 36 3d f5 03 96 bd 1f 3f 4d 3c 1a 63 1f 3c
       0.04448203 -0.073249735 0.012527256 0.0097282175
000380 c6 ac b5 3b 9e 64 32 bc 0a ad b2 3d e0 f0 81 3c
       0.005544278 -0.010888247 0.08724411 0.015861928
000390 ae 80 33 3d 81 3f 68 bd ec 9b 50 3c 82 8a 01 3c
       0.04382389 -0.056701187 0.012732487 0.007906558
0003a0 4a a4 ff bc cd 02 6c bd df 1e 43 3d 28 40 8d bc
       -0.031206269 -0.05761986 0.047636863 -0.017242506
0003b0 29 47 4b 3d e6 8c 4a 3a 38 25 37 bc 4c fd e2 3d
       0.04962841 0.0007726684 -0.011178307 0.11083469
0003c0 67 c8 43 3c 63 ec a5 bd cc 2b 27 3d 91 79 67 3c
       0.011949635 -0.08101728 0.040813252 0.014128105
0003d0 bf 94 11 3c 3e 5a 1f bd c0 6e 98 bd 0f a7 11 bd
       0.0088855615 -0.03890442 -0.07442999 -0.03555971
0003e0 d9 b5 80 bd f0 38 8c bd 6e fd c6 3d 23 73 7a 3d
       -0.06284685 -0.068467975 0.097163066 0.06114496
0003f0 d6 60 00 bd bf 9c 2d bd 49 da f6 bc c3 aa 15 3c
       -0.03134235 -0.042385813 -0.030133383 0.009134951

cls.6.bias f4 [64]
000000 f5 b0 c9 bd ee 81 9d bd ce 4c 41 bc 2f e8 73 3c
       -0.09848205 -0.07690798 -0.011798097 0.0148869
000010 60 71 1a bd 10 a4 d0 bc e9 6b c5 3d 37 57 72 bd
       -0.03770578 -0.025468856 0.09639723 -0.059165206
000020 40 9f be bd 9b 72 9b 3c 89 25 c0 bc fd 6d 8e bc
       -0.09307718 0.018975547 -0.023455398 -0.01738643
000030 39 2f 5d 3d 68 28 d7 bd d5 3b a6 3c fd 64 13 bd
       0.054000113 -0.10505754 0.020292202 -0.03598498
000040 fc 6e 1f bd 77 99 35 bc c9 73 1a 3d 87 be d9 3d
       -0.038924202 -0.011083952 0.037708078 0.10632043
000050 03 76 40 3d 37 5e 62 bd 53 77 44 3d a7 5b b3 3d
       0.046987545 -0.05526563 0.04796536 0.08757716
000060 9d 05 40 3d b6 43 aa 3d 6d 05 64 3d 31 40 a7 3d
       0.046880353 0.08313696 0.055669237 0.081665404
000070 e5 aa 92 bd 8e 09 8a bd 55 6d df 3d eb 74 6a bd
       -0.07161502 -0.06740104 0.10909525 -0.057240408
000080 5e dd 90 bc 33 0f aa 3c 4f 01 1a 3d 6e 9b 53 bd
       -0.017683681 0.0207592 0.037598904 -0.0516619
000090 91 cc 6c 3d c8 3d 83 bd fe 0d c8 3d a8 20 c9 3c
       0.057812277 -0.06408268 0.09768294 0.024551705
0000a0 ed 72 4d 3c 0e d9 d9 3c 6b 71 f6 bc ed 2d fa bc
       0.0125396075 0.026592758 -0.030083379 -0.030539477
0000b0 ff 7f ad 3c 4c 87 69 3d 66 4d 1d 3d d0 00 de bd
       0.021179197 0.057013795 0.03840389 -0.10839999
0000c0 67 d7 03 3c e6 e2 b7 3c 74 c8 94 3d 35 28 ab bd
       0.008046961 0.02244706 0.07264796 -0.08357278
0000d0 8a ab 25 3d d1 6e 35 3d d1 c7 bf 3d 64 09 94 3d
       0.040446796 0.044295136 0.09364284 0.072283536
0000e0 ab 97 ec 3d 52 bf e5 bc 06 35 7a 3b e3 79 2c 3d
       0.11552366 -0.02804533 0.0038178577 0.042108428
0000f0 57 52 d3 3b 3d ed 6a 3d 8b 84 a3 3d c9 05 5a 3d
       0.0064490247 0.057355154 0.07984265 0.053228173

cls.9.weight f4 [1, 64]
000000 00 55 ce 3b f3 4c 81 bb 5c 2d 82 bb 24 e5 a3 3b
       0.006296754 -0.0039459406 -0.0039726924 0.005001681
000010 26 66 a4 bb 66 02 98 3b bf db 34 bb 14 e0 90 3b
       -0.00501706 0.004638958 -0.00275968 0.0044212434
000020 cb b9 87 3b 28 bd d1 bb 83 5a b7 bb f9 a0 83 bb
       0.0041420213 -0.006400723 -0.0055955066 -0.004016992
000030 3d 75 a1 bb c9 04 dd 3b 08 3d a5 3b 9e bd 8c 3b
       -0.004927306 0.006744955 0.005042676 0.004295065
000040 18 2c be bb ab 12 a8 3b 7c 33 35 3b ad 1b 92 bb
       -0.005803596 0.0051291785 0.0027649095 -0.0044588656
000050 15 a5 8c bb cc 3c d1 3b 1e f8 6f 3b ce dd 89 bb
       -0.0042921402 0.0063854214 0.0036616395 -0.0042073494
000060 e3 b2 8d bb 6a e1 ca bb 3d c7 9c 3b b4 cf 9a bb
       -0.0043243035 -0.006191422 0.0047844932 -0.004724467
000070 43 31 a4 3b a9 e5 a7 3b 34 8e d6 bb e3 2b 9a 3b
       0.0050107553 0.005123813 -0.0065477137 0.0047049387
000080 32 05 91 bb 54 a0 7c 3b 2e c1 a7 bb 53 26 d4 3b
       -0.004425668 0.0038547711 -0.0051194644 0.006474295
000090 cc cc 9f bb 8d 8b 84 3b 95 c7 8a bb 20 31 c6 3b
       -0.0048767086 0.004044956 -0.004235218 0.0060483366
0000a0 f4 05 c9 bb 78 23 95 3b ec 88 c8 3b e0 f9 cb bb
       -0.006134743 0.0045513473 0.006119838 -0.006224856
0000b0 40 77 88 bb b3 d6 7d bb 61 2c b0 bb f1 28 c1 3b
       -0.0041646063 -0.0038732707 -0.005376384 0.005894773
0000c0 61 ae 71 bb c4 27 73 3b ac 77 7e bb 06 20 99 3b
       -0.003687762 0.003710256 -0.0038828654 0.004673007
0000d0 9d dc a7 bb 2d a1 a8 3b 07 c8 86 bb a7 8e 74 bb
       -0.0051227347 0.005146167 -0.0041132006 -0.0037316473
0000e0 09 81 97 bb 78 89 74 bb 84 4b 8c bb 01 96 9e bb
       -0.0046235365 -0.0037313383 -0.004281463 -0.004839659
0000f0 ea 9f 8d 3b ab 72 95 3b 5f 17 94 bb b7 b0 ae 3b
       0.0043220418 0.0045607886 -0.0045193876 0.0053311246
